…
I0527 16:08:30.050387 24728 net.cpp:344] The NetState phase (0) differed from the phase (1) specified by a rule in layer accuracy_top1
I0527 16:08:30.050387 24728 net.cpp:344] The NetState phase (0) differed from the phase (1) specified by a rule in layer accuracy_top5
I0527 16:08:30.052392 24728 net.cpp:76] Initializing net from parameters: 
name: "ResNet20"
state {
  phase: TRAIN
  level: 0
  stage: ""
}
layer {
  name: "data"
  type: "Data"
  top: "data"
  top: "label"
  include {
    phase: TRAIN
  }
  data_param {
    source: "D:/Research/CNN-based-Indoor-Localization/lmdb/train_48"
    batch_size: 128
    backend: LMDB
  }
}
layer {
  name: "conv1_1"
  type: "Convolution"
  bottom: "data"
  top: "conv1_1"
  param {
    lr_mult: 1
    decay_mult: 1
  }
  param {
    lr_mult: 2
    decay_mult: 0
  }
  convolution_param {
    num_output: 16
    pad: 2
    kernel_size: 3
    stride: 2
    weight_filler {
      type: "xavier"
    }
    bias_filler {
      type: "constant"
      value: 0
    }
  }
}
layer {
  name: "relu1_1"
  type: "PReLU"
  bottom: "conv1_1"
  top: "conv1_1"
}
layer {
  name: "conv1_2"
  type: "Convolution"
  bottom: "conv1_1"
  top: "conv1_2"
  param {
    lr_mult: 1
    decay_mult: 1
  }
  param {
    lr_mult: 0
    decay_mult: 0
  }
  convolution_param {
    num_output: 16
    pad: 1
    kernel_size: 3
    stride: 1
    weight_filler {
      type: "gaussian"
      std: 0.01
    }
    bias_filler {
      type: "constant"
      value: 0
    }
  }
}
layer {
  name: "relu1_2"
  type: "PReLU"
  bottom: "conv1_2"
  top: "conv1_2"
}
layer {
  name: "conv1_3"
  type: "Convolution"
  bottom: "conv1_2"
  top: "conv1_3"
  param {
    lr_mult: 1
    decay_mult: 1
  }
  param {
    lr_mult: 0
    decay_mult: 0
  }
  convolution_param {
    num_output: 16
    pad: 1
    kernel_size: 3
    stride: 1
    weight_filler {
      type: "gaussian"
      std: 0.01
    }
    bias_filler {
      type: "constant"
      value: 0
    }
  }
}
layer {
  name: "relu1_3"
  type: "PReLU"
  bottom: "conv1_3"
  top: "conv1_3"
}
layer {
  name: "res1_3"
  type: "Eltwise"
  bottom: "conv1_1"
  bottom: "conv1_3"
  top: "res1_3"
  eltwise_param {
    operation: SUM
  }
}
layer {
  name: "conv2_1"
  type: "Convolution"
  bottom: "res1_3"
  top: "conv2_1"
  param {
    lr_mult: 1
    decay_mult: 1
  }
  param {
    lr_mult: 2
    decay_mult: 0
  }
  convolution_param {
    num_output: 32
    pad: 1
    kernel_size: 3
    stride: 2
    weight_filler {
      type: "xavier"
    }
    bias_filler {
      type: "constant"
      value: 0
    }
  }
}
layer {
  name: "relu2_1"
  type: "PReLU"
  bottom: "conv2_1"
  top: "conv2_1"
}
layer {
  name: "conv2_2"
  type: "Convolution"
  bottom: "conv2_1"
  top: "conv2_2"
  param {
    lr_mult: 1
    decay_mult: 1
  }
  param {
    lr_mult: 0
    decay_mult: 0
  }
  convolution_param {
    num_output: 32
    pad: 1
    kernel_size: 3
    stride: 1
    weight_filler {
      type: "gaussian"
      std: 0.01
    }
    bias_filler {
      type: "constant"
      value: 0
    }
  }
}
layer {
  name: "relu2_2"
  type: "PReLU"
  bottom: "conv2_2"
  top: "conv2_2"
}
layer {
  name: "conv2_3"
  type: "Convolution"
  bottom: "conv2_2"
  top: "conv2_3"
  param {
    lr_mult: 1
    decay_mult: 1
  }
  param {
    lr_mult: 0
    decay_mult: 0
  }
  convolution_param {
    num_output: 32
    pad: 1
    kernel_size: 3
    stride: 1
    weight_filler {
      type: "gaussian"
      std: 0.01
    }
    bias_filler {
      type: "constant"
      value: 0
    }
  }
}
layer {
  name: "relu2_3"
  type: "PReLU"
  bottom: "conv2_3"
  top: "conv2_3"
}
layer {
  name: "res2_3"
  type: "Eltwise"
  bottom: "conv2_1"
  bottom: "conv2_3"
  top: "res2_3"
  eltwise_param {
    operation: SUM
  }
}
layer {
  name: "conv2_4"
  type: "Convolution"
  bottom: "res2_3"
  top: "conv2_4"
  param {
    lr_mult: 1
    decay_mult: 1
  }
  param {
    lr_mult: 0
    decay_mult: 0
  }
  convolution_param {
    num_output: 32
    pad: 1
    kernel_size: 3
    stride: 1
    weight_filler {
      type: "gaussian"
      std: 0.01
    }
    bias_filler {
      type: "constant"
      value: 0
    }
  }
}
layer {
  name: "relu2_4"
  type: "PReLU"
  bottom: "conv2_4"
  top: "conv2_4"
}
layer {
  name: "conv2_5"
  type: "Convolution"
  bottom: "conv2_4"
  top: "conv2_5"
  param {
    lr_mult: 1
    decay_mult: 1
  }
  param {
    lr_mult: 0
    decay_mult: 0
  }
  convolution_param {
    num_output: 32
    pad: 1
    kernel_size: 3
    stride: 1
    weight_filler {
      type: "gaussian"
      std: 0.01
    }
    bias_filler {
      type: "constant"
      value: 0
    }
  }
}
layer {
  name: "relu2_5"
  type: "PReLU"
  bottom: "conv2_5"
  top: "conv2_5"
}
layer {
  name: "res2_5"
  type: "Eltwise"
  bottom: "res2_3"
  bottom: "conv2_5"
  top: "res2_5"
  eltwise_param {
    operation: SUM
  }
}
layer {
  name: "conv3_1"
  type: "Convolution"
  bottom: "res2_5"
  top: "conv3_1"
  param {
    lr_mult: 1
    decay_mult: 1
  }
  param {
    lr_mult: 2
    decay_mult: 0
  }
  convolution_param {
    num_output: 64
    pad: 1
    kernel_size: 3
    stride: 2
    weight_filler {
      type: "xavier"
    }
    bias_filler {
      type: "constant"
      value: 0
    }
  }
}
layer {
  name: "relu3_1"
  type: "PReLU"
  bottom: "conv3_1"
  top: "conv3_1"
}
layer {
  name: "conv3_2"
  type: "Convolution"
  bottom: "conv3_1"
  top: "conv3_2"
  param {
    lr_mult: 1
    decay_mult: 1
  }
  param {
    lr_mult: 0
    decay_mult: 0
  }
  convolution_param {
    num_output: 64
    pad: 1
    kernel_size: 3
    stride: 1
    weight_filler {
      type: "gaussian"
      std: 0.01
    }
    bias_filler {
      type: "constant"
      value: 0
    }
  }
}
layer {
  name: "relu3_2"
  type: "PReLU"
  bottom: "conv3_2"
  top: "conv3_2"
}
layer {
  name: "conv3_3"
  type: "Convolution"
  bottom: "conv3_2"
  top: "conv3_3"
  param {
    lr_mult: 1
    decay_mult: 1
  }
  param {
    lr_mult: 0
    decay_mult: 0
  }
  convolution_param {
    num_output: 64
    pad: 1
    kernel_size: 3
    stride: 1
    weight_filler {
      type: "gaussian"
      std: 0.01
    }
    bias_filler {
      type: "constant"
      value: 0
    }
  }
}
layer {
  name: "relu3_3"
  type: "PReLU"
  bottom: "conv3_3"
  top: "conv3_3"
}
layer {
  name: "res3_3"
  type: "Eltwise"
  bottom: "conv3_1"
  bottom: "conv3_3"
  top: "res3_3"
  eltwise_param {
    operation: SUM
  }
}
layer {
  name: "conv3_4"
  type: "Convolution"
  bottom: "res3_3"
  top: "conv3_4"
  param {
    lr_mult: 1
    decay_mult: 1
  }
  param {
    lr_mult: 0
    decay_mult: 0
  }
  convolution_param {
    num_output: 64
    pad: 1
    kernel_size: 3
    stride: 1
    weight_filler {
      type: "gaussian"
      std: 0.01
    }
    bias_filler {
      type: "constant"
      value: 0
    }
  }
}
layer {
  name: "relu3_4"
  type: "PReLU"
  bottom: "conv3_4"
  top: "conv3_4"
}
layer {
  name: "conv3_5"
  type: "Convolution"
  bottom: "conv3_4"
  top: "conv3_5"
  param {
    lr_mult: 1
    decay_mult: 1
  }
  param {
    lr_mult: 0
    decay_mult: 0
  }
  convolution_param {
    num_output: 64
    pad: 1
    kernel_size: 3
    stride: 1
    weight_filler {
      type: "gaussian"
      std: 0.01
    }
    bias_filler {
      type: "constant"
      value: 0
    }
  }
}
layer {
  name: "relu3_5"
  type: "PReLU"
  bottom: "conv3_5"
  top: "conv3_5"
}
layer {
  name: "res3_5"
  type: "Eltwise"
  bottom: "res3_3"
  bottom: "conv3_5"
  top: "res3_5"
  eltwise_param {
    operation: SUM
  }
}
layer {
  name: "conv3_6"
  type: "Convolution"
  bottom: "res3_5"
  top: "conv3_6"
  param {
    lr_mult: 1
    decay_mult: 1
  }
  param {
    lr_mult: 0
    decay_mult: 0
  }
  convolution_param {
    num_output: 64
    pad: 1
    kernel_size: 3
    stride: 1
    weight_filler {
      type: "gaussian"
      std: 0.01
    }
    bias_filler {
      type: "constant"
      value: 0
    }
  }
}
layer {
  name: "relu3_6"
  type: "PReLU"
  bottom: "conv3_6"
  top: "conv3_6"
}
layer {
  name: "conv3_7"
  type: "Convolution"
  bottom: "conv3_6"
  top: "conv3_7"
  param {
    lr_mult: 1
    decay_mult: 1
  }
  param {
    lr_mult: 0
    decay_mult: 0
  }
  convolution_param {
    num_output: 64
    pad: 1
    kernel_size: 3
    stride: 1
    weight_filler {
      type: "gaussian"
      std: 0.01
    }
    bias_filler {
      type: "constant"
      value: 0
    }
  }
}
layer {
  name: "relu3_7"
  type: "PReLU"
  bottom: "conv3_7"
  top: "conv3_7"
}
layer {
  name: "res3_7"
  type: "Eltwise"
  bottom: "res3_5"
  bottom: "conv3_7"
  top: "res3_7"
  eltwise_param {
    operation: SUM
  }
}
layer {
  name: "conv3_8"
  type: "Convolution"
  bottom: "res3_7"
  top: "conv3_8"
  param {
    lr_mult: 1
    decay_mult: 1
  }
  param {
    lr_mult: 0
    decay_mult: 0
  }
  convolution_param {
    num_output: 64
    pad: 1
    kernel_size: 3
    stride: 1
    weight_filler {
      type: "gaussian"
      std: 0.01
    }
    bias_filler {
      type: "constant"
      value: 0
    }
  }
}
layer {
  name: "relu3_8"
  type: "PReLU"
  bottom: "conv3_8"
  top: "conv3_8"
}
layer {
  name: "conv3_9"
  type: "Convolution"
  bottom: "conv3_8"
  top: "conv3_9"
  param {
    lr_mult: 1
    decay_mult: 1
  }
  param {
    lr_mult: 0
    decay_mult: 0
  }
  convolution_param {
    num_output: 64
    pad: 1
    kernel_size: 3
    stride: 1
    weight_filler {
      type: "gaussian"
      std: 0.01
    }
    bias_filler {
      type: "constant"
      value: 0
    }
  }
}
layer {
  name: "relu3_9"
  type: "PReLU"
  bottom: "conv3_9"
  top: "conv3_9"
}
layer {
  name: "res3_9"
  type: "Eltwise"
  bottom: "res3_7"
  bottom: "conv3_9"
  top: "res3_9"
  eltwise_param {
    operation: SUM
  }
}
layer {
  name: "conv4_1"
  type: "Convolution"
  bottom: "res3_9"
  top: "conv4_1"
  param {
    lr_mult: 1
    decay_mult: 1
  }
  param {
    lr_mult: 2
    decay_mult: 0
  }
  convolution_param {
    num_output: 128
    pad: 1
    kernel_size: 3
    stride: 2
    weight_filler {
      type: "xavier"
    }
    bias_filler {
      type: "constant"
      value: 0
    }
  }
}
layer {
  name: "relu4_1"
  type: "PReLU"
  bottom: "conv4_1"
  top: "conv4_1"
}
layer {
  name: "conv4_2"
  type: "Convolution"
  bottom: "conv4_1"
  top: "conv4_2"
  param {
    lr_mult: 1
    decay_mult: 1
  }
  param {
    lr_mult: 0
    decay_mult: 0
  }
  convolution_param {
    num_output: 128
    pad: 1
    kernel_size: 3
    stride: 1
    weight_filler {
      type: "gaussian"
      std: 0.01
    }
    bias_filler {
      type: "constant"
      value: 0
    }
  }
}
layer {
  name: "relu4_2"
  type: "PReLU"
  bottom: "conv4_2"
  top: "conv4_2"
}
layer {
  name: "conv4_3"
  type: "Convolution"
  bottom: "conv4_2"
  top: "conv4_3"
  param {
    lr_mult: 1
    decay_mult: 1
  }
  param {
    lr_mult: 0
    decay_mult: 0
  }
  convolution_param {
    num_output: 128
    pad: 1
    kernel_size: 3
    stride: 1
    weight_filler {
      type: "gaussian"
      std: 0.01
    }
    bias_filler {
      type: "constant"
      value: 0
    }
  }
}
layer {
  name: "relu4_3"
  type: "PReLU"
  bottom: "conv4_3"
  top: "conv4_3"
}
layer {
  name: "res4_3"
  type: "Eltwise"
  bottom: "conv4_1"
  bottom: "conv4_3"
  top: "res4_3"
  eltwise_param {
    operation: SUM
  }
}
layer {
  name: "fc5"
  type: "InnerProduct"
  bottom: "res4_3"
  top: "fc5"
  param {
    lr_mult: 1
    decay_mult: 1
  }
  param {
    lr_mult: 2
    decay_mult: 0
  }
  inner_product_param {
    num_output: 48
    weight_filler {
      type: "xavier"
    }
    bias_filler {
      type: "constant"
      value: 0
    }
  }
}
layer {
  name: "softmax_loss"
  type: "SoftmaxWithLoss"
  bottom: "fc5"
  bottom: "label"
  top: "softmax_loss"
}
I0527 16:08:30.059411 24728 layer_factory.hpp:77] Creating layer data
I0527 16:08:30.059411 24728 net.cpp:119] Creating Layer data
I0527 16:08:30.059411 24728 net.cpp:432] data -> data
I0527 16:08:30.059411 24728 net.cpp:432] data -> label
I0527 16:08:30.127611 23684 db_lmdb.cpp:40] Opened lmdb D:/Research/CNN-based-Indoor-Localization/lmdb/train_48
I0527 16:08:30.176723 24728 data_layer.cpp:41] output data size: 128,3,30,30
I0527 16:08:30.180732 24728 net.cpp:170] Setting up data
I0527 16:08:30.180732 24728 net.cpp:177] Top shape: 128 3 30 30 (345600)
I0527 16:08:30.181735 21860 blocking_queue.cpp:50] Waiting for data
I0527 16:08:30.182739 24728 net.cpp:177] Top shape: 128 (128)
I0527 16:08:30.183742 24728 net.cpp:185] Memory required for data: 1382912
I0527 16:08:30.184743 24728 layer_factory.hpp:77] Creating layer conv1_1
I0527 16:08:30.184743 24728 net.cpp:119] Creating Layer conv1_1
I0527 16:08:30.185746 24728 net.cpp:458] conv1_1 <- data
I0527 16:08:30.185746 24728 net.cpp:432] conv1_1 -> conv1_1
I0527 16:08:30.709147 24728 net.cpp:170] Setting up conv1_1
I0527 16:08:30.710150 24728 net.cpp:177] Top shape: 128 16 16 16 (524288)
I0527 16:08:30.711153 24728 net.cpp:185] Memory required for data: 3480064
I0527 16:08:30.712155 24728 layer_factory.hpp:77] Creating layer relu1_1
I0527 16:08:30.713157 24728 net.cpp:119] Creating Layer relu1_1
I0527 16:08:30.714161 24728 net.cpp:458] relu1_1 <- conv1_1
I0527 16:08:30.714161 24728 net.cpp:417] relu1_1 -> conv1_1 (in-place)
I0527 16:08:30.715163 24728 net.cpp:170] Setting up relu1_1
I0527 16:08:30.716166 24728 net.cpp:177] Top shape: 128 16 16 16 (524288)
I0527 16:08:30.716166 24728 net.cpp:185] Memory required for data: 5577216
I0527 16:08:30.717169 24728 layer_factory.hpp:77] Creating layer conv1_1_relu1_1_0_split
I0527 16:08:30.717169 24728 net.cpp:119] Creating Layer conv1_1_relu1_1_0_split
I0527 16:08:30.718171 24728 net.cpp:458] conv1_1_relu1_1_0_split <- conv1_1
I0527 16:08:30.718171 24728 net.cpp:432] conv1_1_relu1_1_0_split -> conv1_1_relu1_1_0_split_0
I0527 16:08:30.718171 24728 net.cpp:432] conv1_1_relu1_1_0_split -> conv1_1_relu1_1_0_split_1
I0527 16:08:30.718171 24728 net.cpp:170] Setting up conv1_1_relu1_1_0_split
I0527 16:08:30.718171 24728 net.cpp:177] Top shape: 128 16 16 16 (524288)
I0527 16:08:30.718171 24728 net.cpp:177] Top shape: 128 16 16 16 (524288)
I0527 16:08:30.719174 24728 net.cpp:185] Memory required for data: 9771520
I0527 16:08:30.719174 24728 layer_factory.hpp:77] Creating layer conv1_2
I0527 16:08:30.720176 24728 net.cpp:119] Creating Layer conv1_2
I0527 16:08:30.720176 24728 net.cpp:458] conv1_2 <- conv1_1_relu1_1_0_split_0
I0527 16:08:30.720176 24728 net.cpp:432] conv1_2 -> conv1_2
I0527 16:08:30.722182 24728 net.cpp:170] Setting up conv1_2
I0527 16:08:30.722182 24728 net.cpp:177] Top shape: 128 16 16 16 (524288)
I0527 16:08:30.722182 24728 net.cpp:185] Memory required for data: 11868672
I0527 16:08:30.722182 24728 layer_factory.hpp:77] Creating layer relu1_2
I0527 16:08:30.723184 24728 net.cpp:119] Creating Layer relu1_2
I0527 16:08:30.723184 24728 net.cpp:458] relu1_2 <- conv1_2
I0527 16:08:30.723184 24728 net.cpp:417] relu1_2 -> conv1_2 (in-place)
I0527 16:08:30.723184 24728 net.cpp:170] Setting up relu1_2
I0527 16:08:30.723184 24728 net.cpp:177] Top shape: 128 16 16 16 (524288)
I0527 16:08:30.723184 24728 net.cpp:185] Memory required for data: 13965824
I0527 16:08:30.723184 24728 layer_factory.hpp:77] Creating layer conv1_3
I0527 16:08:30.724187 24728 net.cpp:119] Creating Layer conv1_3
I0527 16:08:30.724187 24728 net.cpp:458] conv1_3 <- conv1_2
I0527 16:08:30.725190 24728 net.cpp:432] conv1_3 -> conv1_3
I0527 16:08:30.729202 24728 net.cpp:170] Setting up conv1_3
I0527 16:08:30.729202 24728 net.cpp:177] Top shape: 128 16 16 16 (524288)
I0527 16:08:30.730203 24728 net.cpp:185] Memory required for data: 16062976
I0527 16:08:30.730203 24728 layer_factory.hpp:77] Creating layer relu1_3
I0527 16:08:30.731205 24728 net.cpp:119] Creating Layer relu1_3
I0527 16:08:30.731205 24728 net.cpp:458] relu1_3 <- conv1_3
I0527 16:08:30.731205 24728 net.cpp:417] relu1_3 -> conv1_3 (in-place)
I0527 16:08:30.732208 24728 net.cpp:170] Setting up relu1_3
I0527 16:08:30.732208 24728 net.cpp:177] Top shape: 128 16 16 16 (524288)
I0527 16:08:30.733211 24728 net.cpp:185] Memory required for data: 18160128
I0527 16:08:30.734215 24728 layer_factory.hpp:77] Creating layer res1_3
I0527 16:08:30.734215 24728 net.cpp:119] Creating Layer res1_3
I0527 16:08:30.734215 24728 net.cpp:458] res1_3 <- conv1_1_relu1_1_0_split_1
I0527 16:08:30.734215 24728 net.cpp:458] res1_3 <- conv1_3
I0527 16:08:30.735216 24728 net.cpp:432] res1_3 -> res1_3
I0527 16:08:30.735216 24728 net.cpp:170] Setting up res1_3
I0527 16:08:30.735216 24728 net.cpp:177] Top shape: 128 16 16 16 (524288)
I0527 16:08:30.735216 24728 net.cpp:185] Memory required for data: 20257280
I0527 16:08:30.735216 24728 layer_factory.hpp:77] Creating layer conv2_1
I0527 16:08:30.735216 24728 net.cpp:119] Creating Layer conv2_1
I0527 16:08:30.736219 24728 net.cpp:458] conv2_1 <- res1_3
I0527 16:08:30.736219 24728 net.cpp:432] conv2_1 -> conv2_1
I0527 16:08:30.741233 24728 net.cpp:170] Setting up conv2_1
I0527 16:08:30.741233 24728 net.cpp:177] Top shape: 128 32 8 8 (262144)
I0527 16:08:30.741233 24728 net.cpp:185] Memory required for data: 21305856
I0527 16:08:30.741233 24728 layer_factory.hpp:77] Creating layer relu2_1
I0527 16:08:30.741233 24728 net.cpp:119] Creating Layer relu2_1
I0527 16:08:30.742235 24728 net.cpp:458] relu2_1 <- conv2_1
I0527 16:08:30.742235 24728 net.cpp:417] relu2_1 -> conv2_1 (in-place)
I0527 16:08:30.742235 24728 net.cpp:170] Setting up relu2_1
I0527 16:08:30.743238 24728 net.cpp:177] Top shape: 128 32 8 8 (262144)
I0527 16:08:30.744240 24728 net.cpp:185] Memory required for data: 22354432
I0527 16:08:30.745244 24728 layer_factory.hpp:77] Creating layer conv2_1_relu2_1_0_split
I0527 16:08:30.747248 24728 net.cpp:119] Creating Layer conv2_1_relu2_1_0_split
I0527 16:08:30.748251 24728 net.cpp:458] conv2_1_relu2_1_0_split <- conv2_1
I0527 16:08:30.749254 24728 net.cpp:432] conv2_1_relu2_1_0_split -> conv2_1_relu2_1_0_split_0
I0527 16:08:30.750257 24728 net.cpp:432] conv2_1_relu2_1_0_split -> conv2_1_relu2_1_0_split_1
I0527 16:08:30.750257 24728 net.cpp:170] Setting up conv2_1_relu2_1_0_split
I0527 16:08:30.752262 24728 net.cpp:177] Top shape: 128 32 8 8 (262144)
I0527 16:08:30.753264 24728 net.cpp:177] Top shape: 128 32 8 8 (262144)
I0527 16:08:30.754267 24728 net.cpp:185] Memory required for data: 24451584
I0527 16:08:30.755270 24728 layer_factory.hpp:77] Creating layer conv2_2
I0527 16:08:30.756273 24728 net.cpp:119] Creating Layer conv2_2
I0527 16:08:30.757275 24728 net.cpp:458] conv2_2 <- conv2_1_relu2_1_0_split_0
I0527 16:08:30.758277 24728 net.cpp:432] conv2_2 -> conv2_2
I0527 16:08:30.761286 24728 net.cpp:170] Setting up conv2_2
I0527 16:08:30.761286 24728 net.cpp:177] Top shape: 128 32 8 8 (262144)
I0527 16:08:30.761286 24728 net.cpp:185] Memory required for data: 25500160
I0527 16:08:30.761286 24728 layer_factory.hpp:77] Creating layer relu2_2
I0527 16:08:30.761286 24728 net.cpp:119] Creating Layer relu2_2
I0527 16:08:30.762293 24728 net.cpp:458] relu2_2 <- conv2_2
I0527 16:08:30.762293 24728 net.cpp:417] relu2_2 -> conv2_2 (in-place)
I0527 16:08:30.762293 24728 net.cpp:170] Setting up relu2_2
I0527 16:08:30.762293 24728 net.cpp:177] Top shape: 128 32 8 8 (262144)
I0527 16:08:30.762293 24728 net.cpp:185] Memory required for data: 26548736
I0527 16:08:30.762293 24728 layer_factory.hpp:77] Creating layer conv2_3
I0527 16:08:30.763291 24728 net.cpp:119] Creating Layer conv2_3
I0527 16:08:30.763291 24728 net.cpp:458] conv2_3 <- conv2_2
I0527 16:08:30.763291 24728 net.cpp:432] conv2_3 -> conv2_3
I0527 16:08:30.765296 24728 net.cpp:170] Setting up conv2_3
I0527 16:08:30.765296 24728 net.cpp:177] Top shape: 128 32 8 8 (262144)
I0527 16:08:30.765296 24728 net.cpp:185] Memory required for data: 27597312
I0527 16:08:30.766299 24728 layer_factory.hpp:77] Creating layer relu2_3
I0527 16:08:30.766299 24728 net.cpp:119] Creating Layer relu2_3
I0527 16:08:30.769307 24728 net.cpp:458] relu2_3 <- conv2_3
I0527 16:08:30.769307 24728 net.cpp:417] relu2_3 -> conv2_3 (in-place)
I0527 16:08:30.769307 24728 net.cpp:170] Setting up relu2_3
I0527 16:08:30.769307 24728 net.cpp:177] Top shape: 128 32 8 8 (262144)
I0527 16:08:30.769307 24728 net.cpp:185] Memory required for data: 28645888
I0527 16:08:30.769307 24728 layer_factory.hpp:77] Creating layer res2_3
I0527 16:08:30.771312 24728 net.cpp:119] Creating Layer res2_3
I0527 16:08:30.771312 24728 net.cpp:458] res2_3 <- conv2_1_relu2_1_0_split_1
I0527 16:08:30.771312 24728 net.cpp:458] res2_3 <- conv2_3
I0527 16:08:30.771312 24728 net.cpp:432] res2_3 -> res2_3
I0527 16:08:30.771312 24728 net.cpp:170] Setting up res2_3
I0527 16:08:30.772315 24728 net.cpp:177] Top shape: 128 32 8 8 (262144)
I0527 16:08:30.774320 24728 net.cpp:185] Memory required for data: 29694464
I0527 16:08:30.775323 24728 layer_factory.hpp:77] Creating layer res2_3_res2_3_0_split
I0527 16:08:30.777328 24728 net.cpp:119] Creating Layer res2_3_res2_3_0_split
I0527 16:08:30.777328 24728 net.cpp:458] res2_3_res2_3_0_split <- res2_3
I0527 16:08:30.778331 24728 net.cpp:432] res2_3_res2_3_0_split -> res2_3_res2_3_0_split_0
I0527 16:08:30.779335 24728 net.cpp:432] res2_3_res2_3_0_split -> res2_3_res2_3_0_split_1
I0527 16:08:30.779335 24728 net.cpp:170] Setting up res2_3_res2_3_0_split
I0527 16:08:30.780336 24728 net.cpp:177] Top shape: 128 32 8 8 (262144)
I0527 16:08:30.780336 24728 net.cpp:177] Top shape: 128 32 8 8 (262144)
I0527 16:08:30.781338 24728 net.cpp:185] Memory required for data: 31791616
I0527 16:08:30.781338 24728 layer_factory.hpp:77] Creating layer conv2_4
I0527 16:08:30.781338 24728 net.cpp:119] Creating Layer conv2_4
I0527 16:08:30.781338 24728 net.cpp:458] conv2_4 <- res2_3_res2_3_0_split_0
I0527 16:08:30.782342 24728 net.cpp:432] conv2_4 -> conv2_4
I0527 16:08:30.784348 24728 net.cpp:170] Setting up conv2_4
I0527 16:08:30.784348 24728 net.cpp:177] Top shape: 128 32 8 8 (262144)
I0527 16:08:30.784348 24728 net.cpp:185] Memory required for data: 32840192
I0527 16:08:30.784348 24728 layer_factory.hpp:77] Creating layer relu2_4
I0527 16:08:30.785351 24728 net.cpp:119] Creating Layer relu2_4
I0527 16:08:30.785351 24728 net.cpp:458] relu2_4 <- conv2_4
I0527 16:08:30.785351 24728 net.cpp:417] relu2_4 -> conv2_4 (in-place)
I0527 16:08:30.785351 24728 net.cpp:170] Setting up relu2_4
I0527 16:08:30.785351 24728 net.cpp:177] Top shape: 128 32 8 8 (262144)
I0527 16:08:30.785351 24728 net.cpp:185] Memory required for data: 33888768
I0527 16:08:30.786353 24728 layer_factory.hpp:77] Creating layer conv2_5
I0527 16:08:30.786353 24728 net.cpp:119] Creating Layer conv2_5
I0527 16:08:30.786353 24728 net.cpp:458] conv2_5 <- conv2_4
I0527 16:08:30.786353 24728 net.cpp:432] conv2_5 -> conv2_5
I0527 16:08:30.788358 24728 net.cpp:170] Setting up conv2_5
I0527 16:08:30.788358 24728 net.cpp:177] Top shape: 128 32 8 8 (262144)
I0527 16:08:30.789361 24728 net.cpp:185] Memory required for data: 34937344
I0527 16:08:30.789361 24728 layer_factory.hpp:77] Creating layer relu2_5
I0527 16:08:30.789361 24728 net.cpp:119] Creating Layer relu2_5
I0527 16:08:30.789361 24728 net.cpp:458] relu2_5 <- conv2_5
I0527 16:08:30.789361 24728 net.cpp:417] relu2_5 -> conv2_5 (in-place)
I0527 16:08:30.789361 24728 net.cpp:170] Setting up relu2_5
I0527 16:08:30.789361 24728 net.cpp:177] Top shape: 128 32 8 8 (262144)
I0527 16:08:30.790364 24728 net.cpp:185] Memory required for data: 35985920
I0527 16:08:30.790364 24728 layer_factory.hpp:77] Creating layer res2_5
I0527 16:08:30.790364 24728 net.cpp:119] Creating Layer res2_5
I0527 16:08:30.790364 24728 net.cpp:458] res2_5 <- res2_3_res2_3_0_split_1
I0527 16:08:30.790364 24728 net.cpp:458] res2_5 <- conv2_5
I0527 16:08:30.790364 24728 net.cpp:432] res2_5 -> res2_5
I0527 16:08:30.790364 24728 net.cpp:170] Setting up res2_5
I0527 16:08:30.790364 24728 net.cpp:177] Top shape: 128 32 8 8 (262144)
I0527 16:08:30.791366 24728 net.cpp:185] Memory required for data: 37034496
I0527 16:08:30.791366 24728 layer_factory.hpp:77] Creating layer conv3_1
I0527 16:08:30.792368 24728 net.cpp:119] Creating Layer conv3_1
I0527 16:08:30.793370 24728 net.cpp:458] conv3_1 <- res2_5
I0527 16:08:30.795377 24728 net.cpp:432] conv3_1 -> conv3_1
I0527 16:08:30.800390 24728 net.cpp:170] Setting up conv3_1
I0527 16:08:30.800390 24728 net.cpp:177] Top shape: 128 64 4 4 (131072)
I0527 16:08:30.801393 24728 net.cpp:185] Memory required for data: 37558784
I0527 16:08:30.803397 24728 layer_factory.hpp:77] Creating layer relu3_1
I0527 16:08:30.804400 24728 net.cpp:119] Creating Layer relu3_1
I0527 16:08:30.804400 24728 net.cpp:458] relu3_1 <- conv3_1
I0527 16:08:30.805403 24728 net.cpp:417] relu3_1 -> conv3_1 (in-place)
I0527 16:08:30.806406 24728 net.cpp:170] Setting up relu3_1
I0527 16:08:30.806406 24728 net.cpp:177] Top shape: 128 64 4 4 (131072)
I0527 16:08:30.807410 24728 net.cpp:185] Memory required for data: 38083072
I0527 16:08:30.807410 24728 layer_factory.hpp:77] Creating layer conv3_1_relu3_1_0_split
I0527 16:08:30.807410 24728 net.cpp:119] Creating Layer conv3_1_relu3_1_0_split
I0527 16:08:30.807410 24728 net.cpp:458] conv3_1_relu3_1_0_split <- conv3_1
I0527 16:08:30.808411 24728 net.cpp:432] conv3_1_relu3_1_0_split -> conv3_1_relu3_1_0_split_0
I0527 16:08:30.808411 24728 net.cpp:432] conv3_1_relu3_1_0_split -> conv3_1_relu3_1_0_split_1
I0527 16:08:30.808411 24728 net.cpp:170] Setting up conv3_1_relu3_1_0_split
I0527 16:08:30.808411 24728 net.cpp:177] Top shape: 128 64 4 4 (131072)
I0527 16:08:30.808411 24728 net.cpp:177] Top shape: 128 64 4 4 (131072)
I0527 16:08:30.808411 24728 net.cpp:185] Memory required for data: 39131648
I0527 16:08:30.809414 24728 layer_factory.hpp:77] Creating layer conv3_2
I0527 16:08:30.809414 24728 net.cpp:119] Creating Layer conv3_2
I0527 16:08:30.809414 24728 net.cpp:458] conv3_2 <- conv3_1_relu3_1_0_split_0
I0527 16:08:30.809414 24728 net.cpp:432] conv3_2 -> conv3_2
I0527 16:08:30.812422 24728 net.cpp:170] Setting up conv3_2
I0527 16:08:30.812422 24728 net.cpp:177] Top shape: 128 64 4 4 (131072)
I0527 16:08:30.812422 24728 net.cpp:185] Memory required for data: 39655936
I0527 16:08:30.813426 24728 layer_factory.hpp:77] Creating layer relu3_2
I0527 16:08:30.813426 24728 net.cpp:119] Creating Layer relu3_2
I0527 16:08:30.813426 24728 net.cpp:458] relu3_2 <- conv3_2
I0527 16:08:30.813426 24728 net.cpp:417] relu3_2 -> conv3_2 (in-place)
I0527 16:08:30.813426 24728 net.cpp:170] Setting up relu3_2
I0527 16:08:30.813426 24728 net.cpp:177] Top shape: 128 64 4 4 (131072)
I0527 16:08:30.813426 24728 net.cpp:185] Memory required for data: 40180224
I0527 16:08:30.814427 24728 layer_factory.hpp:77] Creating layer conv3_3
I0527 16:08:30.814427 24728 net.cpp:119] Creating Layer conv3_3
I0527 16:08:30.814427 24728 net.cpp:458] conv3_3 <- conv3_2
I0527 16:08:30.814427 24728 net.cpp:432] conv3_3 -> conv3_3
I0527 16:08:30.817436 24728 net.cpp:170] Setting up conv3_3
I0527 16:08:30.817436 24728 net.cpp:177] Top shape: 128 64 4 4 (131072)
I0527 16:08:30.818439 24728 net.cpp:185] Memory required for data: 40704512
I0527 16:08:30.819442 24728 layer_factory.hpp:77] Creating layer relu3_3
I0527 16:08:30.819442 24728 net.cpp:119] Creating Layer relu3_3
I0527 16:08:30.819442 24728 net.cpp:458] relu3_3 <- conv3_3
I0527 16:08:30.819442 24728 net.cpp:417] relu3_3 -> conv3_3 (in-place)
I0527 16:08:30.819442 24728 net.cpp:170] Setting up relu3_3
I0527 16:08:30.820443 24728 net.cpp:177] Top shape: 128 64 4 4 (131072)
I0527 16:08:30.821446 24728 net.cpp:185] Memory required for data: 41228800
I0527 16:08:30.823451 24728 layer_factory.hpp:77] Creating layer res3_3
I0527 16:08:30.823451 24728 net.cpp:119] Creating Layer res3_3
I0527 16:08:30.824453 24728 net.cpp:458] res3_3 <- conv3_1_relu3_1_0_split_1
I0527 16:08:30.824453 24728 net.cpp:458] res3_3 <- conv3_3
I0527 16:08:30.825456 24728 net.cpp:432] res3_3 -> res3_3
I0527 16:08:30.825456 24728 net.cpp:170] Setting up res3_3
I0527 16:08:30.825456 24728 net.cpp:177] Top shape: 128 64 4 4 (131072)
I0527 16:08:30.825456 24728 net.cpp:185] Memory required for data: 41753088
I0527 16:08:30.826459 24728 layer_factory.hpp:77] Creating layer res3_3_res3_3_0_split
I0527 16:08:30.826459 24728 net.cpp:119] Creating Layer res3_3_res3_3_0_split
I0527 16:08:30.826459 24728 net.cpp:458] res3_3_res3_3_0_split <- res3_3
I0527 16:08:30.826459 24728 net.cpp:432] res3_3_res3_3_0_split -> res3_3_res3_3_0_split_0
I0527 16:08:30.827462 24728 net.cpp:432] res3_3_res3_3_0_split -> res3_3_res3_3_0_split_1
I0527 16:08:30.828464 24728 net.cpp:170] Setting up res3_3_res3_3_0_split
I0527 16:08:30.829468 24728 net.cpp:177] Top shape: 128 64 4 4 (131072)
I0527 16:08:30.829468 24728 net.cpp:177] Top shape: 128 64 4 4 (131072)
I0527 16:08:30.829468 24728 net.cpp:185] Memory required for data: 42801664
I0527 16:08:30.829468 24728 layer_factory.hpp:77] Creating layer conv3_4
I0527 16:08:30.829468 24728 net.cpp:119] Creating Layer conv3_4
I0527 16:08:30.830471 24728 net.cpp:458] conv3_4 <- res3_3_res3_3_0_split_0
I0527 16:08:30.831473 24728 net.cpp:432] conv3_4 -> conv3_4
I0527 16:08:30.834481 24728 net.cpp:170] Setting up conv3_4
I0527 16:08:30.834481 24728 net.cpp:177] Top shape: 128 64 4 4 (131072)
I0527 16:08:30.836486 24728 net.cpp:185] Memory required for data: 43325952
I0527 16:08:30.837488 24728 layer_factory.hpp:77] Creating layer relu3_4
I0527 16:08:30.838491 24728 net.cpp:119] Creating Layer relu3_4
I0527 16:08:30.839494 24728 net.cpp:458] relu3_4 <- conv3_4
I0527 16:08:30.840497 24728 net.cpp:417] relu3_4 -> conv3_4 (in-place)
I0527 16:08:30.841500 24728 net.cpp:170] Setting up relu3_4
I0527 16:08:30.841500 24728 net.cpp:177] Top shape: 128 64 4 4 (131072)
I0527 16:08:30.842502 24728 net.cpp:185] Memory required for data: 43850240
I0527 16:08:30.842502 24728 layer_factory.hpp:77] Creating layer conv3_5
I0527 16:08:30.842502 24728 net.cpp:119] Creating Layer conv3_5
I0527 16:08:30.842502 24728 net.cpp:458] conv3_5 <- conv3_4
I0527 16:08:30.843505 24728 net.cpp:432] conv3_5 -> conv3_5
I0527 16:08:30.846513 24728 net.cpp:170] Setting up conv3_5
I0527 16:08:30.846513 24728 net.cpp:177] Top shape: 128 64 4 4 (131072)
I0527 16:08:30.846513 24728 net.cpp:185] Memory required for data: 44374528
I0527 16:08:30.846513 24728 layer_factory.hpp:77] Creating layer relu3_5
I0527 16:08:30.846513 24728 net.cpp:119] Creating Layer relu3_5
I0527 16:08:30.847515 24728 net.cpp:458] relu3_5 <- conv3_5
I0527 16:08:30.847515 24728 net.cpp:417] relu3_5 -> conv3_5 (in-place)
I0527 16:08:30.847515 24728 net.cpp:170] Setting up relu3_5
I0527 16:08:30.847515 24728 net.cpp:177] Top shape: 128 64 4 4 (131072)
I0527 16:08:30.847515 24728 net.cpp:185] Memory required for data: 44898816
I0527 16:08:30.847515 24728 layer_factory.hpp:77] Creating layer res3_5
I0527 16:08:30.848518 24728 net.cpp:119] Creating Layer res3_5
I0527 16:08:30.848518 24728 net.cpp:458] res3_5 <- res3_3_res3_3_0_split_1
I0527 16:08:30.848518 24728 net.cpp:458] res3_5 <- conv3_5
I0527 16:08:30.848518 24728 net.cpp:432] res3_5 -> res3_5
I0527 16:08:30.848518 24728 net.cpp:170] Setting up res3_5
I0527 16:08:30.848518 24728 net.cpp:177] Top shape: 128 64 4 4 (131072)
I0527 16:08:30.848518 24728 net.cpp:185] Memory required for data: 45423104
I0527 16:08:30.849520 24728 layer_factory.hpp:77] Creating layer res3_5_res3_5_0_split
I0527 16:08:30.849520 24728 net.cpp:119] Creating Layer res3_5_res3_5_0_split
I0527 16:08:30.849520 24728 net.cpp:458] res3_5_res3_5_0_split <- res3_5
I0527 16:08:30.850523 24728 net.cpp:432] res3_5_res3_5_0_split -> res3_5_res3_5_0_split_0
I0527 16:08:30.850523 24728 net.cpp:432] res3_5_res3_5_0_split -> res3_5_res3_5_0_split_1
I0527 16:08:30.850523 24728 net.cpp:170] Setting up res3_5_res3_5_0_split
I0527 16:08:30.850523 24728 net.cpp:177] Top shape: 128 64 4 4 (131072)
I0527 16:08:30.850523 24728 net.cpp:177] Top shape: 128 64 4 4 (131072)
I0527 16:08:30.851526 24728 net.cpp:185] Memory required for data: 46471680
I0527 16:08:30.851526 24728 layer_factory.hpp:77] Creating layer conv3_6
I0527 16:08:30.851526 24728 net.cpp:119] Creating Layer conv3_6
I0527 16:08:30.851526 24728 net.cpp:458] conv3_6 <- res3_5_res3_5_0_split_0
I0527 16:08:30.851526 24728 net.cpp:432] conv3_6 -> conv3_6
I0527 16:08:30.854534 24728 net.cpp:170] Setting up conv3_6
I0527 16:08:30.854534 24728 net.cpp:177] Top shape: 128 64 4 4 (131072)
I0527 16:08:30.855536 24728 net.cpp:185] Memory required for data: 46995968
I0527 16:08:30.856539 24728 layer_factory.hpp:77] Creating layer relu3_6
I0527 16:08:30.857542 24728 net.cpp:119] Creating Layer relu3_6
I0527 16:08:30.858546 24728 net.cpp:458] relu3_6 <- conv3_6
I0527 16:08:30.861552 24728 net.cpp:417] relu3_6 -> conv3_6 (in-place)
I0527 16:08:30.861552 24728 net.cpp:170] Setting up relu3_6
I0527 16:08:30.861552 24728 net.cpp:177] Top shape: 128 64 4 4 (131072)
I0527 16:08:30.862563 24728 net.cpp:185] Memory required for data: 47520256
I0527 16:08:30.862563 24728 layer_factory.hpp:77] Creating layer conv3_7
I0527 16:08:30.862563 24728 net.cpp:119] Creating Layer conv3_7
I0527 16:08:30.862563 24728 net.cpp:458] conv3_7 <- conv3_6
I0527 16:08:30.862563 24728 net.cpp:432] conv3_7 -> conv3_7
I0527 16:08:30.865563 24728 net.cpp:170] Setting up conv3_7
I0527 16:08:30.865563 24728 net.cpp:177] Top shape: 128 64 4 4 (131072)
I0527 16:08:30.866566 24728 net.cpp:185] Memory required for data: 48044544
I0527 16:08:30.867568 24728 layer_factory.hpp:77] Creating layer relu3_7
I0527 16:08:30.868571 24728 net.cpp:119] Creating Layer relu3_7
I0527 16:08:30.869575 24728 net.cpp:458] relu3_7 <- conv3_7
I0527 16:08:30.870577 24728 net.cpp:417] relu3_7 -> conv3_7 (in-place)
I0527 16:08:30.870577 24728 net.cpp:170] Setting up relu3_7
I0527 16:08:30.871579 24728 net.cpp:177] Top shape: 128 64 4 4 (131072)
I0527 16:08:30.871579 24728 net.cpp:185] Memory required for data: 48568832
I0527 16:08:30.871579 24728 layer_factory.hpp:77] Creating layer res3_7
I0527 16:08:30.872582 24728 net.cpp:119] Creating Layer res3_7
I0527 16:08:30.872582 24728 net.cpp:458] res3_7 <- res3_5_res3_5_0_split_1
I0527 16:08:30.872582 24728 net.cpp:458] res3_7 <- conv3_7
I0527 16:08:30.872582 24728 net.cpp:432] res3_7 -> res3_7
I0527 16:08:30.872582 24728 net.cpp:170] Setting up res3_7
I0527 16:08:30.872582 24728 net.cpp:177] Top shape: 128 64 4 4 (131072)
I0527 16:08:30.872582 24728 net.cpp:185] Memory required for data: 49093120
I0527 16:08:30.873585 24728 layer_factory.hpp:77] Creating layer res3_7_res3_7_0_split
I0527 16:08:30.873585 24728 net.cpp:119] Creating Layer res3_7_res3_7_0_split
I0527 16:08:30.873585 24728 net.cpp:458] res3_7_res3_7_0_split <- res3_7
I0527 16:08:30.873585 24728 net.cpp:432] res3_7_res3_7_0_split -> res3_7_res3_7_0_split_0
I0527 16:08:30.873585 24728 net.cpp:432] res3_7_res3_7_0_split -> res3_7_res3_7_0_split_1
I0527 16:08:30.873585 24728 net.cpp:170] Setting up res3_7_res3_7_0_split
I0527 16:08:30.874586 24728 net.cpp:177] Top shape: 128 64 4 4 (131072)
I0527 16:08:30.874586 24728 net.cpp:177] Top shape: 128 64 4 4 (131072)
I0527 16:08:30.874586 24728 net.cpp:185] Memory required for data: 50141696
I0527 16:08:30.874586 24728 layer_factory.hpp:77] Creating layer conv3_8
I0527 16:08:30.874586 24728 net.cpp:119] Creating Layer conv3_8
I0527 16:08:30.874586 24728 net.cpp:458] conv3_8 <- res3_7_res3_7_0_split_0
I0527 16:08:30.874586 24728 net.cpp:432] conv3_8 -> conv3_8
I0527 16:08:30.878597 24728 net.cpp:170] Setting up conv3_8
I0527 16:08:30.878597 24728 net.cpp:177] Top shape: 128 64 4 4 (131072)
I0527 16:08:30.879601 24728 net.cpp:185] Memory required for data: 50665984
I0527 16:08:30.880604 24728 layer_factory.hpp:77] Creating layer relu3_8
I0527 16:08:30.881606 24728 net.cpp:119] Creating Layer relu3_8
I0527 16:08:30.881606 24728 net.cpp:458] relu3_8 <- conv3_8
I0527 16:08:30.882609 24728 net.cpp:417] relu3_8 -> conv3_8 (in-place)
I0527 16:08:30.883611 24728 net.cpp:170] Setting up relu3_8
I0527 16:08:30.884614 24728 net.cpp:177] Top shape: 128 64 4 4 (131072)
I0527 16:08:30.884614 24728 net.cpp:185] Memory required for data: 51190272
I0527 16:08:30.885617 24728 layer_factory.hpp:77] Creating layer conv3_9
I0527 16:08:30.885617 24728 net.cpp:119] Creating Layer conv3_9
I0527 16:08:30.885617 24728 net.cpp:458] conv3_9 <- conv3_8
I0527 16:08:30.885617 24728 net.cpp:432] conv3_9 -> conv3_9
I0527 16:08:30.891633 24728 net.cpp:170] Setting up conv3_9
I0527 16:08:30.891633 24728 net.cpp:177] Top shape: 128 64 4 4 (131072)
I0527 16:08:30.891633 24728 net.cpp:185] Memory required for data: 51714560
I0527 16:08:30.892634 24728 layer_factory.hpp:77] Creating layer relu3_9
I0527 16:08:30.893637 24728 net.cpp:119] Creating Layer relu3_9
I0527 16:08:30.895643 24728 net.cpp:458] relu3_9 <- conv3_9
I0527 16:08:30.896646 24728 net.cpp:417] relu3_9 -> conv3_9 (in-place)
I0527 16:08:30.898650 24728 net.cpp:170] Setting up relu3_9
I0527 16:08:30.898650 24728 net.cpp:177] Top shape: 128 64 4 4 (131072)
I0527 16:08:30.898650 24728 net.cpp:185] Memory required for data: 52238848
I0527 16:08:30.899654 24728 layer_factory.hpp:77] Creating layer res3_9
I0527 16:08:30.900656 24728 net.cpp:119] Creating Layer res3_9
I0527 16:08:30.900656 24728 net.cpp:458] res3_9 <- res3_7_res3_7_0_split_1
I0527 16:08:30.901659 24728 net.cpp:458] res3_9 <- conv3_9
I0527 16:08:30.902662 24728 net.cpp:432] res3_9 -> res3_9
I0527 16:08:30.902662 24728 net.cpp:170] Setting up res3_9
I0527 16:08:30.902662 24728 net.cpp:177] Top shape: 128 64 4 4 (131072)
I0527 16:08:30.902662 24728 net.cpp:185] Memory required for data: 52763136
I0527 16:08:30.903664 24728 layer_factory.hpp:77] Creating layer conv4_1
I0527 16:08:30.903664 24728 net.cpp:119] Creating Layer conv4_1
I0527 16:08:30.903664 24728 net.cpp:458] conv4_1 <- res3_9
I0527 16:08:30.903664 24728 net.cpp:432] conv4_1 -> conv4_1
I0527 16:08:30.906673 24728 net.cpp:170] Setting up conv4_1
I0527 16:08:30.906673 24728 net.cpp:177] Top shape: 128 128 2 2 (65536)
I0527 16:08:30.906673 24728 net.cpp:185] Memory required for data: 53025280
I0527 16:08:30.907675 24728 layer_factory.hpp:77] Creating layer relu4_1
I0527 16:08:30.907675 24728 net.cpp:119] Creating Layer relu4_1
I0527 16:08:30.907675 24728 net.cpp:458] relu4_1 <- conv4_1
I0527 16:08:30.907675 24728 net.cpp:417] relu4_1 -> conv4_1 (in-place)
I0527 16:08:30.907675 24728 net.cpp:170] Setting up relu4_1
I0527 16:08:30.907675 24728 net.cpp:177] Top shape: 128 128 2 2 (65536)
I0527 16:08:30.907675 24728 net.cpp:185] Memory required for data: 53287424
I0527 16:08:30.908679 24728 layer_factory.hpp:77] Creating layer conv4_1_relu4_1_0_split
I0527 16:08:30.908679 24728 net.cpp:119] Creating Layer conv4_1_relu4_1_0_split
I0527 16:08:30.908679 24728 net.cpp:458] conv4_1_relu4_1_0_split <- conv4_1
I0527 16:08:30.908679 24728 net.cpp:432] conv4_1_relu4_1_0_split -> conv4_1_relu4_1_0_split_0
I0527 16:08:30.908679 24728 net.cpp:432] conv4_1_relu4_1_0_split -> conv4_1_relu4_1_0_split_1
I0527 16:08:30.908679 24728 net.cpp:170] Setting up conv4_1_relu4_1_0_split
I0527 16:08:30.909680 24728 net.cpp:177] Top shape: 128 128 2 2 (65536)
I0527 16:08:30.909680 24728 net.cpp:177] Top shape: 128 128 2 2 (65536)
I0527 16:08:30.909680 24728 net.cpp:185] Memory required for data: 53811712
I0527 16:08:30.909680 24728 layer_factory.hpp:77] Creating layer conv4_2
I0527 16:08:30.909680 24728 net.cpp:119] Creating Layer conv4_2
I0527 16:08:30.909680 24728 net.cpp:458] conv4_2 <- conv4_1_relu4_1_0_split_0
I0527 16:08:30.910683 24728 net.cpp:432] conv4_2 -> conv4_2
I0527 16:08:30.913691 24728 net.cpp:170] Setting up conv4_2
I0527 16:08:30.913691 24728 net.cpp:177] Top shape: 128 128 2 2 (65536)
I0527 16:08:30.915696 24728 net.cpp:185] Memory required for data: 54073856
I0527 16:08:30.918705 24728 layer_factory.hpp:77] Creating layer relu4_2
I0527 16:08:30.919708 24728 net.cpp:119] Creating Layer relu4_2
I0527 16:08:30.919708 24728 net.cpp:458] relu4_2 <- conv4_2
I0527 16:08:30.919708 24728 net.cpp:417] relu4_2 -> conv4_2 (in-place)
I0527 16:08:30.919708 24728 net.cpp:170] Setting up relu4_2
I0527 16:08:30.919708 24728 net.cpp:177] Top shape: 128 128 2 2 (65536)
I0527 16:08:30.920711 24728 net.cpp:185] Memory required for data: 54336000
I0527 16:08:30.921712 24728 layer_factory.hpp:77] Creating layer conv4_3
I0527 16:08:30.921712 24728 net.cpp:119] Creating Layer conv4_3
I0527 16:08:30.921712 24728 net.cpp:458] conv4_3 <- conv4_2
I0527 16:08:30.921712 24728 net.cpp:432] conv4_3 -> conv4_3
I0527 16:08:30.926726 24728 net.cpp:170] Setting up conv4_3
I0527 16:08:30.926726 24728 net.cpp:177] Top shape: 128 128 2 2 (65536)
I0527 16:08:30.926726 24728 net.cpp:185] Memory required for data: 54598144
I0527 16:08:30.928731 24728 layer_factory.hpp:77] Creating layer relu4_3
I0527 16:08:30.929733 24728 net.cpp:119] Creating Layer relu4_3
I0527 16:08:30.930737 24728 net.cpp:458] relu4_3 <- conv4_3
I0527 16:08:30.931740 24728 net.cpp:417] relu4_3 -> conv4_3 (in-place)
I0527 16:08:30.931740 24728 net.cpp:170] Setting up relu4_3
I0527 16:08:30.932742 24728 net.cpp:177] Top shape: 128 128 2 2 (65536)
I0527 16:08:30.932742 24728 net.cpp:185] Memory required for data: 54860288
I0527 16:08:30.933745 24728 layer_factory.hpp:77] Creating layer res4_3
I0527 16:08:30.934747 24728 net.cpp:119] Creating Layer res4_3
I0527 16:08:30.935750 24728 net.cpp:458] res4_3 <- conv4_1_relu4_1_0_split_1
I0527 16:08:30.935750 24728 net.cpp:458] res4_3 <- conv4_3
I0527 16:08:30.935750 24728 net.cpp:432] res4_3 -> res4_3
I0527 16:08:30.936753 24728 net.cpp:170] Setting up res4_3
I0527 16:08:30.936753 24728 net.cpp:177] Top shape: 128 128 2 2 (65536)
I0527 16:08:30.936753 24728 net.cpp:185] Memory required for data: 55122432
I0527 16:08:30.936753 24728 layer_factory.hpp:77] Creating layer fc5
I0527 16:08:30.936753 24728 net.cpp:119] Creating Layer fc5
I0527 16:08:30.936753 24728 net.cpp:458] fc5 <- res4_3
I0527 16:08:30.937755 24728 net.cpp:432] fc5 -> fc5
I0527 16:08:30.937755 24728 net.cpp:170] Setting up fc5
I0527 16:08:30.937755 24728 net.cpp:177] Top shape: 128 48 (6144)
I0527 16:08:30.937755 24728 net.cpp:185] Memory required for data: 55147008
I0527 16:08:30.937755 24728 layer_factory.hpp:77] Creating layer softmax_loss
I0527 16:08:30.938758 24728 net.cpp:119] Creating Layer softmax_loss
I0527 16:08:30.939760 24728 net.cpp:458] softmax_loss <- fc5
I0527 16:08:30.940763 24728 net.cpp:458] softmax_loss <- label
I0527 16:08:30.941766 24728 net.cpp:432] softmax_loss -> softmax_loss
…
I0527 16:08:30.997962 24728 solver.cpp:184] Creating test net (#0) specified by net file: D:/Research/CNN-based-Indoor-Localization/model/resnet20.prototxt
I0527 16:08:30.997962 24728 net.cpp:344] The NetState phase (1) differed from the phase (0) specified by a rule in layer data
I0527 16:08:30.998965 24728 net.cpp:76] Initializing net from parameters: 
name: "ResNet20"
state {
  phase: TEST
}
layer {
  name: "data"
  type: "Data"
  top: "data"
  top: "label"
  include {
    phase: TEST
  }
  data_param {
    source: "D:/Research/CNN-based-Indoor-Localization/lmdb/val_48"
    batch_size: 128
    backend: LMDB
  }
}
layer {
  name: "conv1_1"
  type: "Convolution"
  bottom: "data"
  top: "conv1_1"
  param {
    lr_mult: 1
    decay_mult: 1
  }
  param {
    lr_mult: 2
    decay_mult: 0
  }
  convolution_param {
    num_output: 16
    pad: 2
    kernel_size: 3
    stride: 2
    weight_filler {
      type: "xavier"
    }
    bias_filler {
      type: "constant"
      value: 0
    }
  }
}
layer {
  name: "relu1_1"
  type: "PReLU"
  bottom: "conv1_1"
  top: "conv1_1"
}
layer {
  name: "conv1_2"
  type: "Convolution"
  bottom: "conv1_1"
  top: "conv1_2"
  param {
    lr_mult: 1
    decay_mult: 1
  }
  param {
    lr_mult: 0
    decay_mult: 0
  }
  convolution_param {
    num_output: 16
    pad: 1
    kernel_size: 3
    stride: 1
    weight_filler {
      type: "gaussian"
      std: 0.01
    }
    bias_filler {
      type: "constant"
      value: 0
    }
  }
}
layer {
  name: "relu1_2"
  type: "PReLU"
  bottom: "conv1_2"
  top: "conv1_2"
}
layer {
  name: "conv1_3"
  type: "Convolution"
  bottom: "conv1_2"
  top: "conv1_3"
  param {
    lr_mult: 1
    decay_mult: 1
  }
  param {
    lr_mult: 0
    decay_mult: 0
  }
  convolution_param {
    num_output: 16
    pad: 1
    kernel_size: 3
    stride: 1
    weight_filler {
      type: "gaussian"
      std: 0.01
    }
    bias_filler {
      type: "constant"
      value: 0
    }
  }
}
layer {
  name: "relu1_3"
  type: "PReLU"
  bottom: "conv1_3"
  top: "conv1_3"
}
layer {
  name: "res1_3"
  type: "Eltwise"
  bottom: "conv1_1"
  bottom: "conv1_3"
  top: "res1_3"
  eltwise_param {
    operation: SUM
  }
}
layer {
  name: "conv2_1"
  type: "Convolution"
  bottom: "res1_3"
  top: "conv2_1"
  param {
    lr_mult: 1
    decay_mult: 1
  }
  param {
    lr_mult: 2
    decay_mult: 0
  }
  convolution_param {
    num_output: 32
    pad: 1
    kernel_size: 3
    stride: 2
    weight_filler {
      type: "xavier"
    }
    bias_filler {
      type: "constant"
      value: 0
    }
  }
}
layer {
  name: "relu2_1"
  type: "PReLU"
  bottom: "conv2_1"
  top: "conv2_1"
}
layer {
  name: "conv2_2"
  type: "Convolution"
  bottom: "conv2_1"
  top: "conv2_2"
  param {
    lr_mult: 1
    decay_mult: 1
  }
  param {
    lr_mult: 0
    decay_mult: 0
  }
  convolution_param {
    num_output: 32
    pad: 1
    kernel_size: 3
    stride: 1
    weight_filler {
      type: "gaussian"
      std: 0.01
    }
    bias_filler {
      type: "constant"
      value: 0
    }
  }
}
layer {
  name: "relu2_2"
  type: "PReLU"
  bottom: "conv2_2"
  top: "conv2_2"
}
layer {
  name: "conv2_3"
  type: "Convolution"
  bottom: "conv2_2"
  top: "conv2_3"
  param {
    lr_mult: 1
    decay_mult: 1
  }
  param {
    lr_mult: 0
    decay_mult: 0
  }
  convolution_param {
    num_output: 32
    pad: 1
    kernel_size: 3
    stride: 1
    weight_filler {
      type: "gaussian"
      std: 0.01
    }
    bias_filler {
      type: "constant"
      value: 0
    }
  }
}
layer {
  name: "relu2_3"
  type: "PReLU"
  bottom: "conv2_3"
  top: "conv2_3"
}
layer {
  name: "res2_3"
  type: "Eltwise"
  bottom: "conv2_1"
  bottom: "conv2_3"
  top: "res2_3"
  eltwise_param {
    operation: SUM
  }
}
layer {
  name: "conv2_4"
  type: "Convolution"
  bottom: "res2_3"
  top: "conv2_4"
  param {
    lr_mult: 1
    decay_mult: 1
  }
  param {
    lr_mult: 0
    decay_mult: 0
  }
  convolution_param {
    num_output: 32
    pad: 1
    kernel_size: 3
    stride: 1
    weight_filler {
      type: "gaussian"
      std: 0.01
    }
    bias_filler {
      type: "constant"
      value: 0
    }
  }
}
layer {
  name: "relu2_4"
  type: "PReLU"
  bottom: "conv2_4"
  top: "conv2_4"
}
layer {
  name: "conv2_5"
  type: "Convolution"
  bottom: "conv2_4"
  top: "conv2_5"
  param {
    lr_mult: 1
    decay_mult: 1
  }
  param {
    lr_mult: 0
    decay_mult: 0
  }
  convolution_param {
    num_output: 32
    pad: 1
    kernel_size: 3
    stride: 1
    weight_filler {
      type: "gaussian"
      std: 0.01
    }
    bias_filler {
      type: "constant"
      value: 0
    }
  }
}
layer {
  name: "relu2_5"
  type: "PReLU"
  bottom: "conv2_5"
  top: "conv2_5"
}
layer {
  name: "res2_5"
  type: "Eltwise"
  bottom: "res2_3"
  bottom: "conv2_5"
  top: "res2_5"
  eltwise_param {
    operation: SUM
  }
}
layer {
  name: "conv3_1"
  type: "Convolution"
  bottom: "res2_5"
  top: "conv3_1"
  param {
    lr_mult: 1
    decay_mult: 1
  }
  param {
    lr_mult: 2
    decay_mult: 0
  }
  convolution_param {
    num_output: 64
    pad: 1
    kernel_size: 3
    stride: 2
    weight_filler {
      type: "xavier"
    }
    bias_filler {
      type: "constant"
      value: 0
    }
  }
}
layer {
  name: "relu3_1"
  type: "PReLU"
  bottom: "conv3_1"
  top: "conv3_1"
}
layer {
  name: "conv3_2"
  type: "Convolution"
  bottom: "conv3_1"
  top: "conv3_2"
  param {
    lr_mult: 1
    decay_mult: 1
  }
  param {
    lr_mult: 0
    decay_mult: 0
  }
  convolution_param {
    num_output: 64
    pad: 1
    kernel_size: 3
    stride: 1
    weight_filler {
      type: "gaussian"
      std: 0.01
    }
    bias_filler {
      type: "constant"
      value: 0
    }
  }
}
layer {
  name: "relu3_2"
  type: "PReLU"
  bottom: "conv3_2"
  top: "conv3_2"
}
layer {
  name: "conv3_3"
  type: "Convolution"
  bottom: "conv3_2"
  top: "conv3_3"
  param {
    lr_mult: 1
    decay_mult: 1
  }
  param {
    lr_mult: 0
    decay_mult: 0
  }
  convolution_param {
    num_output: 64
    pad: 1
    kernel_size: 3
    stride: 1
    weight_filler {
      type: "gaussian"
      std: 0.01
    }
    bias_filler {
      type: "constant"
      value: 0
    }
  }
}
layer {
  name: "relu3_3"
  type: "PReLU"
  bottom: "conv3_3"
  top: "conv3_3"
}
layer {
  name: "res3_3"
  type: "Eltwise"
  bottom: "conv3_1"
  bottom: "conv3_3"
  top: "res3_3"
  eltwise_param {
    operation: SUM
  }
}
layer {
  name: "conv3_4"
  type: "Convolution"
  bottom: "res3_3"
  top: "conv3_4"
  param {
    lr_mult: 1
    decay_mult: 1
  }
  param {
    lr_mult: 0
    decay_mult: 0
  }
  convolution_param {
    num_output: 64
    pad: 1
    kernel_size: 3
    stride: 1
    weight_filler {
      type: "gaussian"
      std: 0.01
    }
    bias_filler {
      type: "constant"
      value: 0
    }
  }
}
layer {
  name: "relu3_4"
  type: "PReLU"
  bottom: "conv3_4"
  top: "conv3_4"
}
layer {
  name: "conv3_5"
  type: "Convolution"
  bottom: "conv3_4"
  top: "conv3_5"
  param {
    lr_mult: 1
    decay_mult: 1
  }
  param {
    lr_mult: 0
    decay_mult: 0
  }
  convolution_param {
    num_output: 64
    pad: 1
    kernel_size: 3
    stride: 1
    weight_filler {
      type: "gaussian"
      std: 0.01
    }
    bias_filler {
      type: "constant"
      value: 0
    }
  }
}
layer {
  name: "relu3_5"
  type: "PReLU"
  bottom: "conv3_5"
  top: "conv3_5"
}
layer {
  name: "res3_5"
  type: "Eltwise"
  bottom: "res3_3"
  bottom: "conv3_5"
  top: "res3_5"
  eltwise_param {
    operation: SUM
  }
}
layer {
  name: "conv3_6"
  type: "Convolution"
  bottom: "res3_5"
  top: "conv3_6"
  param {
    lr_mult: 1
    decay_mult: 1
  }
  param {
    lr_mult: 0
    decay_mult: 0
  }
  convolution_param {
    num_output: 64
    pad: 1
    kernel_size: 3
    stride: 1
    weight_filler {
      type: "gaussian"
      std: 0.01
    }
    bias_filler {
      type: "constant"
      value: 0
    }
  }
}
layer {
  name: "relu3_6"
  type: "PReLU"
  bottom: "conv3_6"
  top: "conv3_6"
}
layer {
  name: "conv3_7"
  type: "Convolution"
  bottom: "conv3_6"
  top: "conv3_7"
  param {
    lr_mult: 1
    decay_mult: 1
  }
  param {
    lr_mult: 0
    decay_mult: 0
  }
  convolution_param {
    num_output: 64
    pad: 1
    kernel_size: 3
    stride: 1
    weight_filler {
      type: "gaussian"
      std: 0.01
    }
    bias_filler {
      type: "constant"
      value: 0
    }
  }
}
layer {
  name: "relu3_7"
  type: "PReLU"
  bottom: "conv3_7"
  top: "conv3_7"
}
layer {
  name: "res3_7"
  type: "Eltwise"
  bottom: "res3_5"
  bottom: "conv3_7"
  top: "res3_7"
  eltwise_param {
    operation: SUM
  }
}
layer {
  name: "conv3_8"
  type: "Convolution"
  bottom: "res3_7"
  top: "conv3_8"
  param {
    lr_mult: 1
    decay_mult: 1
  }
  param {
    lr_mult: 0
    decay_mult: 0
  }
  convolution_param {
    num_output: 64
    pad: 1
    kernel_size: 3
    stride: 1
    weight_filler {
      type: "gaussian"
      std: 0.01
    }
    bias_filler {
      type: "constant"
      value: 0
    }
  }
}
layer {
  name: "relu3_8"
  type: "PReLU"
  bottom: "conv3_8"
  top: "conv3_8"
}
layer {
  name: "conv3_9"
  type: "Convolution"
  bottom: "conv3_8"
  top: "conv3_9"
  param {
    lr_mult: 1
    decay_mult: 1
  }
  param {
    lr_mult: 0
    decay_mult: 0
  }
  convolution_param {
    num_output: 64
    pad: 1
    kernel_size: 3
    stride: 1
    weight_filler {
      type: "gaussian"
      std: 0.01
    }
    bias_filler {
      type: "constant"
      value: 0
    }
  }
}
layer {
  name: "relu3_9"
  type: "PReLU"
  bottom: "conv3_9"
  top: "conv3_9"
}
layer {
  name: "res3_9"
  type: "Eltwise"
  bottom: "res3_7"
  bottom: "conv3_9"
  top: "res3_9"
  eltwise_param {
    operation: SUM
  }
}
layer {
  name: "conv4_1"
  type: "Convolution"
  bottom: "res3_9"
  top: "conv4_1"
  param {
    lr_mult: 1
    decay_mult: 1
  }
  param {
    lr_mult: 2
    decay_mult: 0
  }
  convolution_param {
    num_output: 128
    pad: 1
    kernel_size: 3
    stride: 2
    weight_filler {
      type: "xavier"
    }
    bias_filler {
      type: "constant"
      value: 0
    }
  }
}
layer {
  name: "relu4_1"
  type: "PReLU"
  bottom: "conv4_1"
  top: "conv4_1"
}
layer {
  name: "conv4_2"
  type: "Convolution"
  bottom: "conv4_1"
  top: "conv4_2"
  param {
    lr_mult: 1
    decay_mult: 1
  }
  param {
    lr_mult: 0
    decay_mult: 0
  }
  convolution_param {
    num_output: 128
    pad: 1
    kernel_size: 3
    stride: 1
    weight_filler {
      type: "gaussian"
      std: 0.01
    }
    bias_filler {
      type: "constant"
      value: 0
    }
  }
}
layer {
  name: "relu4_2"
  type: "PReLU"
  bottom: "conv4_2"
  top: "conv4_2"
}
layer {
  name: "conv4_3"
  type: "Convolution"
  bottom: "conv4_2"
  top: "conv4_3"
  param {
    lr_mult: 1
    decay_mult: 1
  }
  param {
    lr_mult: 0
    decay_mult: 0
  }
  convolution_param {
    num_output: 128
    pad: 1
    kernel_size: 3
    stride: 1
    weight_filler {
      type: "gaussian"
      std: 0.01
    }
    bias_filler {
      type: "constant"
      value: 0
    }
  }
}
layer {
  name: "relu4_3"
  type: "PReLU"
  bottom: "conv4_3"
  top: "conv4_3"
}
layer {
  name: "res4_3"
  type: "Eltwise"
  bottom: "conv4_1"
  bottom: "conv4_3"
  top: "res4_3"
  eltwise_param {
    operation: SUM
  }
}
layer {
  name: "fc5"
  type: "InnerProduct"
  bottom: "res4_3"
  top: "fc5"
  param {
    lr_mult: 1
    decay_mult: 1
  }
  param {
    lr_mult: 2
    decay_mult: 0
  }
  inner_product_param {
    num_output: 48
    weight_filler {
      type: "xavier"
    }
    bias_filler {
      type: "constant"
      value: 0
    }
  }
}
layer {
  name: "softmax_loss"
  type: "SoftmaxWithLoss"
  bottom: "fc5"
  bottom: "label"
  top: "softmax_loss"
}
layer {
  name: "accuracy_top1"
  type: "Accuracy"
  bottom: "fc5"
  bottom: "label"
  top: "accuracy_top1"
  include {
    phase: TEST
  }
}
layer {
  name: "accuracy_top5"
  type: "Accuracy"
  bottom: "fc5"
  bottom: "label"
  top: "accuracy_top5"
  include {
    phase: TEST
  }
  accuracy_param {
    top_k: 5
  }
}
I0527 16:08:31.003978 24728 layer_factory.hpp:77] Creating layer data
I0527 16:08:31.004981 24728 net.cpp:119] Creating Layer data
I0527 16:08:31.005985 24728 net.cpp:432] data -> data
I0527 16:08:31.006986 24728 net.cpp:432] data -> label
I0527 16:08:31.039072 19532 db_lmdb.cpp:40] Opened lmdb D:/Research/CNN-based-Indoor-Localization/lmdb/val_48
I0527 16:08:31.040074 24728 data_layer.cpp:41] output data size: 128,3,30,30
I0527 16:08:31.044085 24728 net.cpp:170] Setting up data
I0527 16:08:31.044085 24728 net.cpp:177] Top shape: 128 3 30 30 (345600)
I0527 16:08:31.044085 24728 net.cpp:177] Top shape: 128 (128)
I0527 16:08:31.045089 24728 net.cpp:185] Memory required for data: 1382912
I0527 16:08:31.045089 24728 layer_factory.hpp:77] Creating layer label_data_1_split
I0527 16:08:31.045089 24728 net.cpp:119] Creating Layer label_data_1_split
I0527 16:08:31.045089 24728 net.cpp:458] label_data_1_split <- label
I0527 16:08:31.046092 24728 net.cpp:432] label_data_1_split -> label_data_1_split_0
I0527 16:08:31.046092 24728 net.cpp:432] label_data_1_split -> label_data_1_split_1
I0527 16:08:31.046092 24728 net.cpp:432] label_data_1_split -> label_data_1_split_2
I0527 16:08:31.046092 24728 net.cpp:170] Setting up label_data_1_split
I0527 16:08:31.046092 24728 net.cpp:177] Top shape: 128 (128)
I0527 16:08:31.046092 24728 net.cpp:177] Top shape: 128 (128)
I0527 16:08:31.046092 24728 net.cpp:177] Top shape: 128 (128)
I0527 16:08:31.047093 24728 net.cpp:185] Memory required for data: 1384448
I0527 16:08:31.047093 24728 layer_factory.hpp:77] Creating layer conv1_1
I0527 16:08:31.047093 24728 net.cpp:119] Creating Layer conv1_1
I0527 16:08:31.047093 24728 net.cpp:458] conv1_1 <- data
I0527 16:08:31.047093 24728 net.cpp:432] conv1_1 -> conv1_1
I0527 16:08:31.049098 24728 net.cpp:170] Setting up conv1_1
I0527 16:08:31.049098 24728 net.cpp:177] Top shape: 128 16 16 16 (524288)
I0527 16:08:31.049098 24728 net.cpp:185] Memory required for data: 3481600
I0527 16:08:31.049098 24728 layer_factory.hpp:77] Creating layer relu1_1
I0527 16:08:31.050101 24728 net.cpp:119] Creating Layer relu1_1
I0527 16:08:31.050101 24728 net.cpp:458] relu1_1 <- conv1_1
I0527 16:08:31.050101 24728 net.cpp:417] relu1_1 -> conv1_1 (in-place)
I0527 16:08:31.050101 24728 net.cpp:170] Setting up relu1_1
I0527 16:08:31.050101 24728 net.cpp:177] Top shape: 128 16 16 16 (524288)
I0527 16:08:31.051105 24728 net.cpp:185] Memory required for data: 5578752
I0527 16:08:31.051105 24728 layer_factory.hpp:77] Creating layer conv1_1_relu1_1_0_split
I0527 16:08:31.051105 24728 net.cpp:119] Creating Layer conv1_1_relu1_1_0_split
I0527 16:08:31.051105 24728 net.cpp:458] conv1_1_relu1_1_0_split <- conv1_1
I0527 16:08:31.051105 24728 net.cpp:432] conv1_1_relu1_1_0_split -> conv1_1_relu1_1_0_split_0
I0527 16:08:31.051105 24728 net.cpp:432] conv1_1_relu1_1_0_split -> conv1_1_relu1_1_0_split_1
I0527 16:08:31.052108 24728 net.cpp:170] Setting up conv1_1_relu1_1_0_split
I0527 16:08:31.052108 24728 net.cpp:177] Top shape: 128 16 16 16 (524288)
I0527 16:08:31.052108 24728 net.cpp:177] Top shape: 128 16 16 16 (524288)
I0527 16:08:31.052108 24728 net.cpp:185] Memory required for data: 9773056
I0527 16:08:31.052108 24728 layer_factory.hpp:77] Creating layer conv1_2
I0527 16:08:31.052108 24728 net.cpp:119] Creating Layer conv1_2
I0527 16:08:31.052108 24728 net.cpp:458] conv1_2 <- conv1_1_relu1_1_0_split_0
I0527 16:08:31.053109 24728 net.cpp:432] conv1_2 -> conv1_2
I0527 16:08:31.055114 24728 net.cpp:170] Setting up conv1_2
I0527 16:08:31.056116 24728 net.cpp:177] Top shape: 128 16 16 16 (524288)
I0527 16:08:31.057121 24728 net.cpp:185] Memory required for data: 11870208
I0527 16:08:31.058122 24728 layer_factory.hpp:77] Creating layer relu1_2
I0527 16:08:31.060128 24728 net.cpp:119] Creating Layer relu1_2
I0527 16:08:31.061131 24728 net.cpp:458] relu1_2 <- conv1_2
I0527 16:08:31.061131 24728 net.cpp:417] relu1_2 -> conv1_2 (in-place)
I0527 16:08:31.062134 24728 net.cpp:170] Setting up relu1_2
I0527 16:08:31.063148 24728 net.cpp:177] Top shape: 128 16 16 16 (524288)
I0527 16:08:31.063148 24728 net.cpp:185] Memory required for data: 13967360
I0527 16:08:31.065140 24728 layer_factory.hpp:77] Creating layer conv1_3
I0527 16:08:31.066143 24728 net.cpp:119] Creating Layer conv1_3
I0527 16:08:31.067147 24728 net.cpp:458] conv1_3 <- conv1_2
I0527 16:08:31.068148 24728 net.cpp:432] conv1_3 -> conv1_3
I0527 16:08:31.074167 24728 net.cpp:170] Setting up conv1_3
I0527 16:08:31.074167 24728 net.cpp:177] Top shape: 128 16 16 16 (524288)
I0527 16:08:31.074167 24728 net.cpp:185] Memory required for data: 16064512
I0527 16:08:31.074167 24728 layer_factory.hpp:77] Creating layer relu1_3
I0527 16:08:31.074167 24728 net.cpp:119] Creating Layer relu1_3
I0527 16:08:31.075168 24728 net.cpp:458] relu1_3 <- conv1_3
I0527 16:08:31.075168 24728 net.cpp:417] relu1_3 -> conv1_3 (in-place)
I0527 16:08:31.075168 24728 net.cpp:170] Setting up relu1_3
I0527 16:08:31.075168 24728 net.cpp:177] Top shape: 128 16 16 16 (524288)
I0527 16:08:31.075168 24728 net.cpp:185] Memory required for data: 18161664
I0527 16:08:31.076171 24728 layer_factory.hpp:77] Creating layer res1_3
I0527 16:08:31.076171 24728 net.cpp:119] Creating Layer res1_3
I0527 16:08:31.077173 24728 net.cpp:458] res1_3 <- conv1_1_relu1_1_0_split_1
I0527 16:08:31.077173 24728 net.cpp:458] res1_3 <- conv1_3
I0527 16:08:31.077173 24728 net.cpp:432] res1_3 -> res1_3
I0527 16:08:31.077173 24728 net.cpp:170] Setting up res1_3
I0527 16:08:31.077173 24728 net.cpp:177] Top shape: 128 16 16 16 (524288)
I0527 16:08:31.077173 24728 net.cpp:185] Memory required for data: 20258816
I0527 16:08:31.078176 24728 layer_factory.hpp:77] Creating layer conv2_1
I0527 16:08:31.078176 24728 net.cpp:119] Creating Layer conv2_1
I0527 16:08:31.078176 24728 net.cpp:458] conv2_1 <- res1_3
I0527 16:08:31.078176 24728 net.cpp:432] conv2_1 -> conv2_1
I0527 16:08:31.080180 24728 net.cpp:170] Setting up conv2_1
I0527 16:08:31.080180 24728 net.cpp:177] Top shape: 128 32 8 8 (262144)
I0527 16:08:31.081184 24728 net.cpp:185] Memory required for data: 21307392
I0527 16:08:31.082186 24728 layer_factory.hpp:77] Creating layer relu2_1
I0527 16:08:31.083189 24728 net.cpp:119] Creating Layer relu2_1
I0527 16:08:31.084192 24728 net.cpp:458] relu2_1 <- conv2_1
I0527 16:08:31.085194 24728 net.cpp:417] relu2_1 -> conv2_1 (in-place)
I0527 16:08:31.086196 24728 net.cpp:170] Setting up relu2_1
I0527 16:08:31.087200 24728 net.cpp:177] Top shape: 128 32 8 8 (262144)
I0527 16:08:31.088202 24728 net.cpp:185] Memory required for data: 22355968
I0527 16:08:31.088202 24728 layer_factory.hpp:77] Creating layer conv2_1_relu2_1_0_split
I0527 16:08:31.088202 24728 net.cpp:119] Creating Layer conv2_1_relu2_1_0_split
I0527 16:08:31.089205 24728 net.cpp:458] conv2_1_relu2_1_0_split <- conv2_1
I0527 16:08:31.089205 24728 net.cpp:432] conv2_1_relu2_1_0_split -> conv2_1_relu2_1_0_split_0
I0527 16:08:31.089205 24728 net.cpp:432] conv2_1_relu2_1_0_split -> conv2_1_relu2_1_0_split_1
I0527 16:08:31.089205 24728 net.cpp:170] Setting up conv2_1_relu2_1_0_split
I0527 16:08:31.089205 24728 net.cpp:177] Top shape: 128 32 8 8 (262144)
I0527 16:08:31.089205 24728 net.cpp:177] Top shape: 128 32 8 8 (262144)
I0527 16:08:31.090209 24728 net.cpp:185] Memory required for data: 24453120
I0527 16:08:31.090209 24728 layer_factory.hpp:77] Creating layer conv2_2
I0527 16:08:31.090209 24728 net.cpp:119] Creating Layer conv2_2
I0527 16:08:31.090209 24728 net.cpp:458] conv2_2 <- conv2_1_relu2_1_0_split_0
I0527 16:08:31.090209 24728 net.cpp:432] conv2_2 -> conv2_2
I0527 16:08:31.093215 24728 net.cpp:170] Setting up conv2_2
I0527 16:08:31.093215 24728 net.cpp:177] Top shape: 128 32 8 8 (262144)
I0527 16:08:31.093215 24728 net.cpp:185] Memory required for data: 25501696
I0527 16:08:31.093215 24728 layer_factory.hpp:77] Creating layer relu2_2
I0527 16:08:31.093215 24728 net.cpp:119] Creating Layer relu2_2
I0527 16:08:31.093215 24728 net.cpp:458] relu2_2 <- conv2_2
I0527 16:08:31.094218 24728 net.cpp:417] relu2_2 -> conv2_2 (in-place)
I0527 16:08:31.094218 24728 net.cpp:170] Setting up relu2_2
I0527 16:08:31.094218 24728 net.cpp:177] Top shape: 128 32 8 8 (262144)
I0527 16:08:31.094218 24728 net.cpp:185] Memory required for data: 26550272
I0527 16:08:31.094218 24728 layer_factory.hpp:77] Creating layer conv2_3
I0527 16:08:31.094218 24728 net.cpp:119] Creating Layer conv2_3
I0527 16:08:31.094218 24728 net.cpp:458] conv2_3 <- conv2_2
I0527 16:08:31.095221 24728 net.cpp:432] conv2_3 -> conv2_3
I0527 16:08:31.101236 24728 net.cpp:170] Setting up conv2_3
I0527 16:08:31.101236 24728 net.cpp:177] Top shape: 128 32 8 8 (262144)
I0527 16:08:31.101236 24728 net.cpp:185] Memory required for data: 27598848
I0527 16:08:31.103242 24728 layer_factory.hpp:77] Creating layer relu2_3
I0527 16:08:31.104244 24728 net.cpp:119] Creating Layer relu2_3
I0527 16:08:31.105248 24728 net.cpp:458] relu2_3 <- conv2_3
I0527 16:08:31.106251 24728 net.cpp:417] relu2_3 -> conv2_3 (in-place)
I0527 16:08:31.107254 24728 net.cpp:170] Setting up relu2_3
I0527 16:08:31.108256 24728 net.cpp:177] Top shape: 128 32 8 8 (262144)
I0527 16:08:31.108256 24728 net.cpp:185] Memory required for data: 28647424
I0527 16:08:31.109257 24728 layer_factory.hpp:77] Creating layer res2_3
I0527 16:08:31.110261 24728 net.cpp:119] Creating Layer res2_3
I0527 16:08:31.110261 24728 net.cpp:458] res2_3 <- conv2_1_relu2_1_0_split_1
I0527 16:08:31.110261 24728 net.cpp:458] res2_3 <- conv2_3
I0527 16:08:31.111264 24728 net.cpp:432] res2_3 -> res2_3
I0527 16:08:31.111264 24728 net.cpp:170] Setting up res2_3
I0527 16:08:31.111264 24728 net.cpp:177] Top shape: 128 32 8 8 (262144)
I0527 16:08:31.111264 24728 net.cpp:185] Memory required for data: 29696000
I0527 16:08:31.111264 24728 layer_factory.hpp:77] Creating layer res2_3_res2_3_0_split
I0527 16:08:31.111264 24728 net.cpp:119] Creating Layer res2_3_res2_3_0_split
I0527 16:08:31.112267 24728 net.cpp:458] res2_3_res2_3_0_split <- res2_3
I0527 16:08:31.112267 24728 net.cpp:432] res2_3_res2_3_0_split -> res2_3_res2_3_0_split_0
I0527 16:08:31.112267 24728 net.cpp:432] res2_3_res2_3_0_split -> res2_3_res2_3_0_split_1
I0527 16:08:31.112267 24728 net.cpp:170] Setting up res2_3_res2_3_0_split
I0527 16:08:31.112267 24728 net.cpp:177] Top shape: 128 32 8 8 (262144)
I0527 16:08:31.112267 24728 net.cpp:177] Top shape: 128 32 8 8 (262144)
I0527 16:08:31.112267 24728 net.cpp:185] Memory required for data: 31793152
I0527 16:08:31.113270 24728 layer_factory.hpp:77] Creating layer conv2_4
I0527 16:08:31.113270 24728 net.cpp:119] Creating Layer conv2_4
I0527 16:08:31.113270 24728 net.cpp:458] conv2_4 <- res2_3_res2_3_0_split_0
I0527 16:08:31.114271 24728 net.cpp:432] conv2_4 -> conv2_4
I0527 16:08:31.116277 24728 net.cpp:170] Setting up conv2_4
I0527 16:08:31.116277 24728 net.cpp:177] Top shape: 128 32 8 8 (262144)
I0527 16:08:31.117280 24728 net.cpp:185] Memory required for data: 32841728
I0527 16:08:31.118283 24728 layer_factory.hpp:77] Creating layer relu2_4
I0527 16:08:31.119285 24728 net.cpp:119] Creating Layer relu2_4
I0527 16:08:31.119285 24728 net.cpp:458] relu2_4 <- conv2_4
I0527 16:08:31.120288 24728 net.cpp:417] relu2_4 -> conv2_4 (in-place)
I0527 16:08:31.121289 24728 net.cpp:170] Setting up relu2_4
I0527 16:08:31.121289 24728 net.cpp:177] Top shape: 128 32 8 8 (262144)
I0527 16:08:31.122293 24728 net.cpp:185] Memory required for data: 33890304
I0527 16:08:31.123296 24728 layer_factory.hpp:77] Creating layer conv2_5
I0527 16:08:31.124300 24728 net.cpp:119] Creating Layer conv2_5
I0527 16:08:31.124300 24728 net.cpp:458] conv2_5 <- conv2_4
I0527 16:08:31.124300 24728 net.cpp:432] conv2_5 -> conv2_5
I0527 16:08:31.129312 24728 net.cpp:170] Setting up conv2_5
I0527 16:08:31.130314 24728 net.cpp:177] Top shape: 128 32 8 8 (262144)
I0527 16:08:31.131317 24728 net.cpp:185] Memory required for data: 34938880
I0527 16:08:31.131317 24728 layer_factory.hpp:77] Creating layer relu2_5
I0527 16:08:31.132319 24728 net.cpp:119] Creating Layer relu2_5
I0527 16:08:31.133322 24728 net.cpp:458] relu2_5 <- conv2_5
I0527 16:08:31.134325 24728 net.cpp:417] relu2_5 -> conv2_5 (in-place)
I0527 16:08:31.135327 24728 net.cpp:170] Setting up relu2_5
I0527 16:08:31.135327 24728 net.cpp:177] Top shape: 128 32 8 8 (262144)
I0527 16:08:31.136329 24728 net.cpp:185] Memory required for data: 35987456
I0527 16:08:31.136329 24728 layer_factory.hpp:77] Creating layer res2_5
I0527 16:08:31.137332 24728 net.cpp:119] Creating Layer res2_5
I0527 16:08:31.137332 24728 net.cpp:458] res2_5 <- res2_3_res2_3_0_split_1
I0527 16:08:31.137332 24728 net.cpp:458] res2_5 <- conv2_5
I0527 16:08:31.137332 24728 net.cpp:432] res2_5 -> res2_5
I0527 16:08:31.137332 24728 net.cpp:170] Setting up res2_5
I0527 16:08:31.138336 24728 net.cpp:177] Top shape: 128 32 8 8 (262144)
I0527 16:08:31.138336 24728 net.cpp:185] Memory required for data: 37036032
I0527 16:08:31.138336 24728 layer_factory.hpp:77] Creating layer conv3_1
I0527 16:08:31.138336 24728 net.cpp:119] Creating Layer conv3_1
I0527 16:08:31.138336 24728 net.cpp:458] conv3_1 <- res2_5
I0527 16:08:31.138336 24728 net.cpp:432] conv3_1 -> conv3_1
I0527 16:08:31.141343 24728 net.cpp:170] Setting up conv3_1
I0527 16:08:31.141343 24728 net.cpp:177] Top shape: 128 64 4 4 (131072)
I0527 16:08:31.141343 24728 net.cpp:185] Memory required for data: 37560320
I0527 16:08:31.141343 24728 layer_factory.hpp:77] Creating layer relu3_1
I0527 16:08:31.141343 24728 net.cpp:119] Creating Layer relu3_1
I0527 16:08:31.141343 24728 net.cpp:458] relu3_1 <- conv3_1
I0527 16:08:31.142346 24728 net.cpp:417] relu3_1 -> conv3_1 (in-place)
I0527 16:08:31.142346 24728 net.cpp:170] Setting up relu3_1
I0527 16:08:31.142346 24728 net.cpp:177] Top shape: 128 64 4 4 (131072)
I0527 16:08:31.142346 24728 net.cpp:185] Memory required for data: 38084608
I0527 16:08:31.142346 24728 layer_factory.hpp:77] Creating layer conv3_1_relu3_1_0_split
I0527 16:08:31.142346 24728 net.cpp:119] Creating Layer conv3_1_relu3_1_0_split
I0527 16:08:31.143349 24728 net.cpp:458] conv3_1_relu3_1_0_split <- conv3_1
I0527 16:08:31.143349 24728 net.cpp:432] conv3_1_relu3_1_0_split -> conv3_1_relu3_1_0_split_0
I0527 16:08:31.143349 24728 net.cpp:432] conv3_1_relu3_1_0_split -> conv3_1_relu3_1_0_split_1
I0527 16:08:31.143349 24728 net.cpp:170] Setting up conv3_1_relu3_1_0_split
I0527 16:08:31.143349 24728 net.cpp:177] Top shape: 128 64 4 4 (131072)
I0527 16:08:31.144351 24728 net.cpp:177] Top shape: 128 64 4 4 (131072)
I0527 16:08:31.144351 24728 net.cpp:185] Memory required for data: 39133184
I0527 16:08:31.144351 24728 layer_factory.hpp:77] Creating layer conv3_2
I0527 16:08:31.144351 24728 net.cpp:119] Creating Layer conv3_2
I0527 16:08:31.144351 24728 net.cpp:458] conv3_2 <- conv3_1_relu3_1_0_split_0
I0527 16:08:31.144351 24728 net.cpp:432] conv3_2 -> conv3_2
I0527 16:08:31.147361 24728 net.cpp:170] Setting up conv3_2
I0527 16:08:31.147361 24728 net.cpp:177] Top shape: 128 64 4 4 (131072)
I0527 16:08:31.148362 24728 net.cpp:185] Memory required for data: 39657472
I0527 16:08:31.149365 24728 layer_factory.hpp:77] Creating layer relu3_2
I0527 16:08:31.151371 24728 net.cpp:119] Creating Layer relu3_2
I0527 16:08:31.151371 24728 net.cpp:458] relu3_2 <- conv3_2
I0527 16:08:31.152372 24728 net.cpp:417] relu3_2 -> conv3_2 (in-place)
I0527 16:08:31.153375 24728 net.cpp:170] Setting up relu3_2
I0527 16:08:31.153375 24728 net.cpp:177] Top shape: 128 64 4 4 (131072)
I0527 16:08:31.153375 24728 net.cpp:185] Memory required for data: 40181760
I0527 16:08:31.153375 24728 layer_factory.hpp:77] Creating layer conv3_3
I0527 16:08:31.154378 24728 net.cpp:119] Creating Layer conv3_3
I0527 16:08:31.154378 24728 net.cpp:458] conv3_3 <- conv3_2
I0527 16:08:31.154378 24728 net.cpp:432] conv3_3 -> conv3_3
I0527 16:08:31.158390 24728 net.cpp:170] Setting up conv3_3
I0527 16:08:31.159391 24728 net.cpp:177] Top shape: 128 64 4 4 (131072)
I0527 16:08:31.159391 24728 net.cpp:185] Memory required for data: 40706048
I0527 16:08:31.159391 24728 layer_factory.hpp:77] Creating layer relu3_3
I0527 16:08:31.160394 24728 net.cpp:119] Creating Layer relu3_3
I0527 16:08:31.160394 24728 net.cpp:458] relu3_3 <- conv3_3
I0527 16:08:31.160394 24728 net.cpp:417] relu3_3 -> conv3_3 (in-place)
I0527 16:08:31.160394 24728 net.cpp:170] Setting up relu3_3
I0527 16:08:31.160394 24728 net.cpp:177] Top shape: 128 64 4 4 (131072)
I0527 16:08:31.160394 24728 net.cpp:185] Memory required for data: 41230336
I0527 16:08:31.162400 24728 layer_factory.hpp:77] Creating layer res3_3
I0527 16:08:31.162400 24728 net.cpp:119] Creating Layer res3_3
I0527 16:08:31.162400 24728 net.cpp:458] res3_3 <- conv3_1_relu3_1_0_split_1
I0527 16:08:31.162400 24728 net.cpp:458] res3_3 <- conv3_3
I0527 16:08:31.162400 24728 net.cpp:432] res3_3 -> res3_3
I0527 16:08:31.162400 24728 net.cpp:170] Setting up res3_3
I0527 16:08:31.163403 24728 net.cpp:177] Top shape: 128 64 4 4 (131072)
I0527 16:08:31.163403 24728 net.cpp:185] Memory required for data: 41754624
I0527 16:08:31.163403 24728 layer_factory.hpp:77] Creating layer res3_3_res3_3_0_split
I0527 16:08:31.163403 24728 net.cpp:119] Creating Layer res3_3_res3_3_0_split
I0527 16:08:31.163403 24728 net.cpp:458] res3_3_res3_3_0_split <- res3_3
I0527 16:08:31.163403 24728 net.cpp:432] res3_3_res3_3_0_split -> res3_3_res3_3_0_split_0
I0527 16:08:31.164405 24728 net.cpp:432] res3_3_res3_3_0_split -> res3_3_res3_3_0_split_1
I0527 16:08:31.164405 24728 net.cpp:170] Setting up res3_3_res3_3_0_split
I0527 16:08:31.164405 24728 net.cpp:177] Top shape: 128 64 4 4 (131072)
I0527 16:08:31.164405 24728 net.cpp:177] Top shape: 128 64 4 4 (131072)
I0527 16:08:31.164405 24728 net.cpp:185] Memory required for data: 42803200
I0527 16:08:31.164405 24728 layer_factory.hpp:77] Creating layer conv3_4
I0527 16:08:31.165408 24728 net.cpp:119] Creating Layer conv3_4
I0527 16:08:31.166411 24728 net.cpp:458] conv3_4 <- res3_3_res3_3_0_split_0
I0527 16:08:31.168416 24728 net.cpp:432] conv3_4 -> conv3_4
I0527 16:08:31.172426 24728 net.cpp:170] Setting up conv3_4
I0527 16:08:31.173429 24728 net.cpp:177] Top shape: 128 64 4 4 (131072)
I0527 16:08:31.173429 24728 net.cpp:185] Memory required for data: 43327488
I0527 16:08:31.173429 24728 layer_factory.hpp:77] Creating layer relu3_4
I0527 16:08:31.173429 24728 net.cpp:119] Creating Layer relu3_4
I0527 16:08:31.173429 24728 net.cpp:458] relu3_4 <- conv3_4
I0527 16:08:31.174432 24728 net.cpp:417] relu3_4 -> conv3_4 (in-place)
I0527 16:08:31.174432 24728 net.cpp:170] Setting up relu3_4
I0527 16:08:31.174432 24728 net.cpp:177] Top shape: 128 64 4 4 (131072)
I0527 16:08:31.174432 24728 net.cpp:185] Memory required for data: 43851776
I0527 16:08:31.174432 24728 layer_factory.hpp:77] Creating layer conv3_5
I0527 16:08:31.174432 24728 net.cpp:119] Creating Layer conv3_5
I0527 16:08:31.175434 24728 net.cpp:458] conv3_5 <- conv3_4
I0527 16:08:31.175434 24728 net.cpp:432] conv3_5 -> conv3_5
I0527 16:08:31.179445 24728 net.cpp:170] Setting up conv3_5
I0527 16:08:31.179445 24728 net.cpp:177] Top shape: 128 64 4 4 (131072)
I0527 16:08:31.180447 24728 net.cpp:185] Memory required for data: 44376064
I0527 16:08:31.181450 24728 layer_factory.hpp:77] Creating layer relu3_5
I0527 16:08:31.181450 24728 net.cpp:119] Creating Layer relu3_5
I0527 16:08:31.182453 24728 net.cpp:458] relu3_5 <- conv3_5
I0527 16:08:31.182453 24728 net.cpp:417] relu3_5 -> conv3_5 (in-place)
I0527 16:08:31.183455 24728 net.cpp:170] Setting up relu3_5
I0527 16:08:31.183455 24728 net.cpp:177] Top shape: 128 64 4 4 (131072)
I0527 16:08:31.183455 24728 net.cpp:185] Memory required for data: 44900352
I0527 16:08:31.184458 24728 layer_factory.hpp:77] Creating layer res3_5
I0527 16:08:31.184458 24728 net.cpp:119] Creating Layer res3_5
I0527 16:08:31.184458 24728 net.cpp:458] res3_5 <- res3_3_res3_3_0_split_1
I0527 16:08:31.184458 24728 net.cpp:458] res3_5 <- conv3_5
I0527 16:08:31.184458 24728 net.cpp:432] res3_5 -> res3_5
I0527 16:08:31.185461 24728 net.cpp:170] Setting up res3_5
I0527 16:08:31.185461 24728 net.cpp:177] Top shape: 128 64 4 4 (131072)
I0527 16:08:31.185461 24728 net.cpp:185] Memory required for data: 45424640
I0527 16:08:31.185461 24728 layer_factory.hpp:77] Creating layer res3_5_res3_5_0_split
I0527 16:08:31.185461 24728 net.cpp:119] Creating Layer res3_5_res3_5_0_split
I0527 16:08:31.185461 24728 net.cpp:458] res3_5_res3_5_0_split <- res3_5
I0527 16:08:31.186465 24728 net.cpp:432] res3_5_res3_5_0_split -> res3_5_res3_5_0_split_0
I0527 16:08:31.186465 24728 net.cpp:432] res3_5_res3_5_0_split -> res3_5_res3_5_0_split_1
I0527 16:08:31.186465 24728 net.cpp:170] Setting up res3_5_res3_5_0_split
I0527 16:08:31.186465 24728 net.cpp:177] Top shape: 128 64 4 4 (131072)
I0527 16:08:31.186465 24728 net.cpp:177] Top shape: 128 64 4 4 (131072)
I0527 16:08:31.186465 24728 net.cpp:185] Memory required for data: 46473216
I0527 16:08:31.187466 24728 layer_factory.hpp:77] Creating layer conv3_6
I0527 16:08:31.190475 24728 net.cpp:119] Creating Layer conv3_6
I0527 16:08:31.190475 24728 net.cpp:458] conv3_6 <- res3_5_res3_5_0_split_0
I0527 16:08:31.191478 24728 net.cpp:432] conv3_6 -> conv3_6
I0527 16:08:31.196491 24728 net.cpp:170] Setting up conv3_6
I0527 16:08:31.196491 24728 net.cpp:177] Top shape: 128 64 4 4 (131072)
I0527 16:08:31.197494 24728 net.cpp:185] Memory required for data: 46997504
I0527 16:08:31.197494 24728 layer_factory.hpp:77] Creating layer relu3_6
I0527 16:08:31.198509 24728 net.cpp:119] Creating Layer relu3_6
I0527 16:08:31.199497 24728 net.cpp:458] relu3_6 <- conv3_6
I0527 16:08:31.199497 24728 net.cpp:417] relu3_6 -> conv3_6 (in-place)
I0527 16:08:31.200511 24728 net.cpp:170] Setting up relu3_6
I0527 16:08:31.200511 24728 net.cpp:177] Top shape: 128 64 4 4 (131072)
I0527 16:08:31.200511 24728 net.cpp:185] Memory required for data: 47521792
I0527 16:08:31.200511 24728 layer_factory.hpp:77] Creating layer conv3_7
I0527 16:08:31.201503 24728 net.cpp:119] Creating Layer conv3_7
I0527 16:08:31.201503 24728 net.cpp:458] conv3_7 <- conv3_6
I0527 16:08:31.201503 24728 net.cpp:432] conv3_7 -> conv3_7
I0527 16:08:31.204511 24728 net.cpp:170] Setting up conv3_7
I0527 16:08:31.204511 24728 net.cpp:177] Top shape: 128 64 4 4 (131072)
I0527 16:08:31.204511 24728 net.cpp:185] Memory required for data: 48046080
I0527 16:08:31.204511 24728 layer_factory.hpp:77] Creating layer relu3_7
I0527 16:08:31.205515 24728 net.cpp:119] Creating Layer relu3_7
I0527 16:08:31.205515 24728 net.cpp:458] relu3_7 <- conv3_7
I0527 16:08:31.205515 24728 net.cpp:417] relu3_7 -> conv3_7 (in-place)
I0527 16:08:31.206518 24728 net.cpp:170] Setting up relu3_7
I0527 16:08:31.206518 24728 net.cpp:177] Top shape: 128 64 4 4 (131072)
I0527 16:08:31.206518 24728 net.cpp:185] Memory required for data: 48570368
I0527 16:08:31.206518 24728 layer_factory.hpp:77] Creating layer res3_7
I0527 16:08:31.206518 24728 net.cpp:119] Creating Layer res3_7
I0527 16:08:31.207521 24728 net.cpp:458] res3_7 <- res3_5_res3_5_0_split_1
I0527 16:08:31.207521 24728 net.cpp:458] res3_7 <- conv3_7
I0527 16:08:31.207521 24728 net.cpp:432] res3_7 -> res3_7
I0527 16:08:31.207521 24728 net.cpp:170] Setting up res3_7
I0527 16:08:31.207521 24728 net.cpp:177] Top shape: 128 64 4 4 (131072)
I0527 16:08:31.207521 24728 net.cpp:185] Memory required for data: 49094656
I0527 16:08:31.208523 24728 layer_factory.hpp:77] Creating layer res3_7_res3_7_0_split
I0527 16:08:31.208523 24728 net.cpp:119] Creating Layer res3_7_res3_7_0_split
I0527 16:08:31.208523 24728 net.cpp:458] res3_7_res3_7_0_split <- res3_7
I0527 16:08:31.209527 24728 net.cpp:432] res3_7_res3_7_0_split -> res3_7_res3_7_0_split_0
I0527 16:08:31.210528 24728 net.cpp:432] res3_7_res3_7_0_split -> res3_7_res3_7_0_split_1
I0527 16:08:31.211531 24728 net.cpp:170] Setting up res3_7_res3_7_0_split
I0527 16:08:31.212533 24728 net.cpp:177] Top shape: 128 64 4 4 (131072)
I0527 16:08:31.213536 24728 net.cpp:177] Top shape: 128 64 4 4 (131072)
I0527 16:08:31.213536 24728 net.cpp:185] Memory required for data: 50143232
I0527 16:08:31.214540 24728 layer_factory.hpp:77] Creating layer conv3_8
I0527 16:08:31.215541 24728 net.cpp:119] Creating Layer conv3_8
I0527 16:08:31.216544 24728 net.cpp:458] conv3_8 <- res3_7_res3_7_0_split_0
I0527 16:08:31.216544 24728 net.cpp:432] conv3_8 -> conv3_8
I0527 16:08:31.222560 24728 net.cpp:170] Setting up conv3_8
I0527 16:08:31.222560 24728 net.cpp:177] Top shape: 128 64 4 4 (131072)
I0527 16:08:31.222560 24728 net.cpp:185] Memory required for data: 50667520
I0527 16:08:31.222560 24728 layer_factory.hpp:77] Creating layer relu3_8
I0527 16:08:31.222560 24728 net.cpp:119] Creating Layer relu3_8
I0527 16:08:31.222560 24728 net.cpp:458] relu3_8 <- conv3_8
I0527 16:08:31.223563 24728 net.cpp:417] relu3_8 -> conv3_8 (in-place)
I0527 16:08:31.223563 24728 net.cpp:170] Setting up relu3_8
I0527 16:08:31.223563 24728 net.cpp:177] Top shape: 128 64 4 4 (131072)
I0527 16:08:31.223563 24728 net.cpp:185] Memory required for data: 51191808
I0527 16:08:31.223563 24728 layer_factory.hpp:77] Creating layer conv3_9
I0527 16:08:31.224565 24728 net.cpp:119] Creating Layer conv3_9
I0527 16:08:31.224565 24728 net.cpp:458] conv3_9 <- conv3_8
I0527 16:08:31.224565 24728 net.cpp:432] conv3_9 -> conv3_9
I0527 16:08:31.228602 24728 net.cpp:170] Setting up conv3_9
I0527 16:08:31.228602 24728 net.cpp:177] Top shape: 128 64 4 4 (131072)
I0527 16:08:31.230581 24728 net.cpp:185] Memory required for data: 51716096
I0527 16:08:31.231583 24728 layer_factory.hpp:77] Creating layer relu3_9
I0527 16:08:31.232586 24728 net.cpp:119] Creating Layer relu3_9
I0527 16:08:31.234591 24728 net.cpp:458] relu3_9 <- conv3_9
I0527 16:08:31.235594 24728 net.cpp:417] relu3_9 -> conv3_9 (in-place)
I0527 16:08:31.236598 24728 net.cpp:170] Setting up relu3_9
I0527 16:08:31.237599 24728 net.cpp:177] Top shape: 128 64 4 4 (131072)
I0527 16:08:31.238602 24728 net.cpp:185] Memory required for data: 52240384
I0527 16:08:31.239605 24728 layer_factory.hpp:77] Creating layer res3_9
I0527 16:08:31.240607 24728 net.cpp:119] Creating Layer res3_9
I0527 16:08:31.241611 24728 net.cpp:458] res3_9 <- res3_7_res3_7_0_split_1
I0527 16:08:31.242614 24728 net.cpp:458] res3_9 <- conv3_9
I0527 16:08:31.243615 24728 net.cpp:432] res3_9 -> res3_9
I0527 16:08:31.244617 24728 net.cpp:170] Setting up res3_9
I0527 16:08:31.244617 24728 net.cpp:177] Top shape: 128 64 4 4 (131072)
I0527 16:08:31.245621 24728 net.cpp:185] Memory required for data: 52764672
I0527 16:08:31.246624 24728 layer_factory.hpp:77] Creating layer conv4_1
I0527 16:08:31.246624 24728 net.cpp:119] Creating Layer conv4_1
I0527 16:08:31.247627 24728 net.cpp:458] conv4_1 <- res3_9
I0527 16:08:31.247627 24728 net.cpp:432] conv4_1 -> conv4_1
I0527 16:08:31.250634 24728 net.cpp:170] Setting up conv4_1
I0527 16:08:31.250634 24728 net.cpp:177] Top shape: 128 128 2 2 (65536)
I0527 16:08:31.251637 24728 net.cpp:185] Memory required for data: 53026816
I0527 16:08:31.251637 24728 layer_factory.hpp:77] Creating layer relu4_1
I0527 16:08:31.251637 24728 net.cpp:119] Creating Layer relu4_1
I0527 16:08:31.251637 24728 net.cpp:458] relu4_1 <- conv4_1
I0527 16:08:31.251637 24728 net.cpp:417] relu4_1 -> conv4_1 (in-place)
I0527 16:08:31.252640 24728 net.cpp:170] Setting up relu4_1
I0527 16:08:31.252640 24728 net.cpp:177] Top shape: 128 128 2 2 (65536)
I0527 16:08:31.252640 24728 net.cpp:185] Memory required for data: 53288960
I0527 16:08:31.253641 24728 layer_factory.hpp:77] Creating layer conv4_1_relu4_1_0_split
I0527 16:08:31.254644 24728 net.cpp:119] Creating Layer conv4_1_relu4_1_0_split
I0527 16:08:31.255648 24728 net.cpp:458] conv4_1_relu4_1_0_split <- conv4_1
I0527 16:08:31.257653 24728 net.cpp:432] conv4_1_relu4_1_0_split -> conv4_1_relu4_1_0_split_0
I0527 16:08:31.257653 24728 net.cpp:432] conv4_1_relu4_1_0_split -> conv4_1_relu4_1_0_split_1
I0527 16:08:31.259658 24728 net.cpp:170] Setting up conv4_1_relu4_1_0_split
I0527 16:08:31.259658 24728 net.cpp:177] Top shape: 128 128 2 2 (65536)
I0527 16:08:31.260661 24728 net.cpp:177] Top shape: 128 128 2 2 (65536)
I0527 16:08:31.260661 24728 net.cpp:185] Memory required for data: 53813248
I0527 16:08:31.261664 24728 layer_factory.hpp:77] Creating layer conv4_2
I0527 16:08:31.262666 24728 net.cpp:119] Creating Layer conv4_2
I0527 16:08:31.262666 24728 net.cpp:458] conv4_2 <- conv4_1_relu4_1_0_split_0
I0527 16:08:31.263669 24728 net.cpp:432] conv4_2 -> conv4_2
I0527 16:08:31.267679 24728 net.cpp:170] Setting up conv4_2
I0527 16:08:31.267679 24728 net.cpp:177] Top shape: 128 128 2 2 (65536)
I0527 16:08:31.267679 24728 net.cpp:185] Memory required for data: 54075392
I0527 16:08:31.267679 24728 layer_factory.hpp:77] Creating layer relu4_2
I0527 16:08:31.267679 24728 net.cpp:119] Creating Layer relu4_2
I0527 16:08:31.268682 24728 net.cpp:458] relu4_2 <- conv4_2
I0527 16:08:31.268682 24728 net.cpp:417] relu4_2 -> conv4_2 (in-place)
I0527 16:08:31.268682 24728 net.cpp:170] Setting up relu4_2
I0527 16:08:31.268682 24728 net.cpp:177] Top shape: 128 128 2 2 (65536)
I0527 16:08:31.268682 24728 net.cpp:185] Memory required for data: 54337536
I0527 16:08:31.268682 24728 layer_factory.hpp:77] Creating layer conv4_3
I0527 16:08:31.269686 24728 net.cpp:119] Creating Layer conv4_3
I0527 16:08:31.270687 24728 net.cpp:458] conv4_3 <- conv4_2
I0527 16:08:31.272692 24728 net.cpp:432] conv4_3 -> conv4_3
I0527 16:08:31.278708 24728 net.cpp:170] Setting up conv4_3
I0527 16:08:31.278708 24728 net.cpp:177] Top shape: 128 128 2 2 (65536)
I0527 16:08:31.279712 24728 net.cpp:185] Memory required for data: 54599680
I0527 16:08:31.279712 24728 layer_factory.hpp:77] Creating layer relu4_3
I0527 16:08:31.279712 24728 net.cpp:119] Creating Layer relu4_3
I0527 16:08:31.279712 24728 net.cpp:458] relu4_3 <- conv4_3
I0527 16:08:31.280714 24728 net.cpp:417] relu4_3 -> conv4_3 (in-place)
I0527 16:08:31.280714 24728 net.cpp:170] Setting up relu4_3
I0527 16:08:31.280714 24728 net.cpp:177] Top shape: 128 128 2 2 (65536)
I0527 16:08:31.281718 24728 net.cpp:185] Memory required for data: 54861824
I0527 16:08:31.281718 24728 layer_factory.hpp:77] Creating layer res4_3
I0527 16:08:31.282721 24728 net.cpp:119] Creating Layer res4_3
I0527 16:08:31.282721 24728 net.cpp:458] res4_3 <- conv4_1_relu4_1_0_split_1
I0527 16:08:31.282721 24728 net.cpp:458] res4_3 <- conv4_3
I0527 16:08:31.282721 24728 net.cpp:432] res4_3 -> res4_3
I0527 16:08:31.283722 24728 net.cpp:170] Setting up res4_3
I0527 16:08:31.283722 24728 net.cpp:177] Top shape: 128 128 2 2 (65536)
I0527 16:08:31.283722 24728 net.cpp:185] Memory required for data: 55123968
I0527 16:08:31.283722 24728 layer_factory.hpp:77] Creating layer fc5
I0527 16:08:31.283722 24728 net.cpp:119] Creating Layer fc5
I0527 16:08:31.283722 24728 net.cpp:458] fc5 <- res4_3
I0527 16:08:31.284725 24728 net.cpp:432] fc5 -> fc5
I0527 16:08:31.284725 24728 net.cpp:170] Setting up fc5
I0527 16:08:31.284725 24728 net.cpp:177] Top shape: 128 48 (6144)
I0527 16:08:31.284725 24728 net.cpp:185] Memory required for data: 55148544
I0527 16:08:31.284725 24728 layer_factory.hpp:77] Creating layer fc5_fc5_0_split
I0527 16:08:31.285727 24728 net.cpp:119] Creating Layer fc5_fc5_0_split
I0527 16:08:31.285727 24728 net.cpp:458] fc5_fc5_0_split <- fc5
I0527 16:08:31.285727 24728 net.cpp:432] fc5_fc5_0_split -> fc5_fc5_0_split_0
I0527 16:08:31.285727 24728 net.cpp:432] fc5_fc5_0_split -> fc5_fc5_0_split_1
I0527 16:08:31.285727 24728 net.cpp:432] fc5_fc5_0_split -> fc5_fc5_0_split_2
I0527 16:08:31.285727 24728 net.cpp:170] Setting up fc5_fc5_0_split
I0527 16:08:31.285727 24728 net.cpp:177] Top shape: 128 48 (6144)
I0527 16:08:31.286731 24728 net.cpp:177] Top shape: 128 48 (6144)
I0527 16:08:31.286731 24728 net.cpp:177] Top shape: 128 48 (6144)
I0527 16:08:31.286731 24728 net.cpp:185] Memory required for data: 55222272
I0527 16:08:31.286731 24728 layer_factory.hpp:77] Creating layer softmax_loss
I0527 16:08:31.286731 24728 net.cpp:119] Creating Layer softmax_loss
I0527 16:08:31.286731 24728 net.cpp:458] softmax_loss <- fc5_fc5_0_split_0
I0527 16:08:31.286731 24728 net.cpp:458] softmax_loss <- label_data_1_split_0
I0527 16:08:31.286731 24728 net.cpp:432] softmax_loss -> softmax_loss
…
